node {
  name: "data_loading/Const"
  op: "Const"
  attr {
    key: "_output_shapes"
    value {
      list {
        shape {
          dim {
            size: 2367
          }
        }
      }
    }
  }
  attr {
    key: "dtype"
    value {
      type: DT_STRING
    }
  }
  attr {
    key: "value"
    value {
      tensor {
        dtype: DT_STRING
        tensor_shape {
          dim {
            size: 2367
          }
        }
        string_val: "C:/Users/rizwan.asif/Desktop/projects/SfMLearner/formatted_mars_data/11728.jpg"
        string_val: "C:/Users/rizwan.asif/Desktop/projects/SfMLearner/formatted_mars_data/12124.jpg"
        string_val: "C:/Users/rizwan.asif/Desktop/projects/SfMLearner/formatted_mars_data/10467.jpg"
        string_val: "C:/Users/rizwan.asif/Desktop/projects/SfMLearner/formatted_mars_data/12094.jpg"
        string_val: "C:/Users/rizwan.asif/Desktop/projects/SfMLearner/formatted_mars_data/10041.jpg"
        string_val: "C:/Users/rizwan.asif/Desktop/projects/SfMLearner/formatted_mars_data/10461.jpg"
        string_val: "C:/Users/rizwan.asif/Desktop/projects/SfMLearner/formatted_mars_data/10873.jpg"
        string_val: "C:/Users/rizwan.asif/Desktop/projects/SfMLearner/formatted_mars_data/10894.jpg"
        string_val: "C:/Users/rizwan.asif/Desktop/projects/SfMLearner/formatted_mars_data/12314.jpg"
        string_val: "C:/Users/rizwan.asif/Desktop/projects/SfMLearner/formatted_mars_data/12646.jpg"
        string_val: "C:/Users/rizwan.asif/Desktop/projects/SfMLearner/formatted_mars_data/10456.jpg"
        string_val: "C:/Users/rizwan.asif/Desktop/projects/SfMLearner/formatted_mars_data/11330.jpg"
        string_val: "C:/Users/rizwan.asif/Desktop/projects/SfMLearner/formatted_mars_data/1229.jpg"
        string_val: "C:/Users/rizwan.asif/Desktop/projects/SfMLearner/formatted_mars_data/12471.jpg"
        string_val: "C:/Users/rizwan.asif/Desktop/projects/SfMLearner/formatted_mars_data/11880.jpg"
        string_val: "C:/Users/rizwan.asif/Desktop/projects/SfMLearner/formatted_mars_data/11118.jpg"
        string_val: "C:/Users/rizwan.asif/Desktop/projects/SfMLearner/formatted_mars_data/10336.jpg"
        string_val: "C:/Users/rizwan.asif/Desktop/projects/SfMLearner/formatted_mars_data/11098.jpg"
        string_val: "C:/Users/rizwan.asif/Desktop/projects/SfMLearner/formatted_mars_data/1113.jpg"
        string_val: "C:/Users/rizwan.asif/Desktop/projects/SfMLearner/formatted_mars_data/11281.jpg"
        string_val: "C:/Users/rizwan.asif/Desktop/projects/SfMLearner/formatted_mars_data/10274.jpg"
        string_val: "C:/Users/rizwan.asif/Desktop/projects/SfMLearner/formatted_mars_data/12279.jpg"
        string_val: "C:/Users/rizwan.asif/Desktop/projects/SfMLearner/formatted_mars_data/1102.jpg"
        string_val: "C:/Users/rizwan.asif/Desktop/projects/SfMLearner/formatted_mars_data/11333.jpg"
        string_val: "C:/Users/rizwan.asif/Desktop/projects/SfMLearner/formatted_mars_data/12342.jpg"
        string_val: "C:/Users/rizwan.asif/Desktop/projects/SfMLearner/formatted_mars_data/10632.jpg"
        string_val: "C:/Users/rizwan.asif/Desktop/projects/SfMLearner/formatted_mars_data/11988.jpg"
        string_val: "C:/Users/rizwan.asif/Desktop/projects/SfMLearner/formatted_mars_data/11936.jpg"
        string_val: "C:/Users/rizwan.asif/Desktop/projects/SfMLearner/formatted_mars_data/12426.jpg"
        string_val: "C:/Users/rizwan.asif/Desktop/projects/SfMLearner/formatted_mars_data/10482.jpg"
        string_val: "C:/Users/rizwan.asif/Desktop/projects/SfMLearner/formatted_mars_data/11052.jpg"
        string_val: "C:/Users/rizwan.asif/Desktop/projects/SfMLearner/formatted_mars_data/11785.jpg"
        string_val: "C:/Users/rizwan.asif/Desktop/projects/SfMLearner/formatted_mars_data/12230.jpg"
        string_val: "C:/Users/rizwan.asif/Desktop/projects/SfMLearner/formatted_mars_data/1104.jpg"
        string_val: "C:/Users/rizwan.asif/Desktop/projects/SfMLearner/formatted_mars_data/1103.jpg"
        string_val: "C:/Users/rizwan.asif/Desktop/projects/SfMLearner/formatted_mars_data/11668.jpg"
        string_val: "C:/Users/rizwan.asif/Desktop/projects/SfMLearner/formatted_mars_data/10088.jpg"
        string_val: "C:/Users/rizwan.asif/Desktop/projects/SfMLearner/formatted_mars_data/11173.jpg"
        string_val: "C:/Users/rizwan.asif/Desktop/projects/SfMLearner/formatted_mars_data/10777.jpg"
        string_val: "C:/Users/rizwan.asif/Desktop/projects/SfMLearner/formatted_mars_data/12295.jpg"
        string_val: "C:/Users/rizwan.asif/Desktop/projects/SfMLearner/formatted_mars_data/1101.jpg"
        string_val: "C:/Users/rizwan.asif/Desktop/projects/SfMLearner/formatted_mars_data/11483.jpg"
        string_val: "C:/Users/rizwan.asif/Desktop/projects/SfMLearner/formatted_mars_data/10127.jpg"
        string_val: "C:/Users/rizwan.asif/Desktop/projects/SfMLearner/formatted_mars_data/10582.jpg"
        string_val: "C:/Users/rizwan.asif/Desktop/projects/SfMLearner/formatted_mars_data/10073.jpg"
        string_val: "C:/Users/rizwan.asif/Desktop/projects/SfMLearner/formatted_mars_data/10535.jpg"
        string_val: "C:/Users/rizwan.asif/Desktop/projects/SfMLearner/formatted_mars_data/12256.jpg"
        string_val: "C:/Users/rizwan.asif/Desktop/projects/SfMLearner/formatted_mars_data/10397.jpg"
        string_val: "C:/Users/rizwan.asif/Desktop/projects/SfMLearner/formatted_mars_data/10576.jpg"
        string_val: "C:/Users/rizwan.asif/Desktop/projects/SfMLearner/formatted_mars_data/12238.jpg"
        string_val: "C:/Users/rizwan.asif/Desktop/projects/SfMLearner/formatted_mars_data/12606.jpg"
        string_val: "C:/Users/rizwan.asif/Desktop/projects/SfMLearner/formatted_mars_data/12512.jpg"
        string_val: "C:/Users/rizwan.asif/Desktop/projects/SfMLearner/formatted_mars_data/10899.jpg"
        string_val: "C:/Users/rizwan.asif/Desktop/projects/SfMLearner/formatted_mars_data/12090.jpg"
        string_val: "C:/Users/rizwan.asif/Desktop/projects/SfMLearner/formatted_mars_data/12132.jpg"
        string_val: "C:/Users/rizwan.asif/Desktop/projects/SfMLearner/formatted_mars_data/1003.jpg"
        string_val: "C:/Users/rizwan.asif/Desktop/projects/SfMLearner/formatted_mars_data/10778.jpg"
        string_val: "C:/Users/rizwan.asif/Desktop/projects/SfMLearner/formatted_mars_data/12099.jpg"
        string_val: "C:/Users/rizwan.asif/Desktop/projects/SfMLearner/formatted_mars_data/12558.jpg"
        string_val: "C:/Users/rizwan.asif/Desktop/projects/SfMLearner/formatted_mars_data/10201.jpg"
        string_val: "C:/Users/rizwan.asif/Desktop/projects/SfMLearner/formatted_mars_data/12014.jpg"
        string_val: "C:/Users/rizwan.asif/Desktop/projects/SfMLearner/formatted_mars_data/11461.jpg"
        string_val: "C:/Users/rizwan.asif/Desktop/projects/SfMLearner/formatted_mars_data/10575.jpg"
        string_val: "C:/Users/rizwan.asif/Desktop/projects/SfMLearner/formatted_mars_data/11361.jpg"
        string_val: "C:/Users/rizwan.asif/Desktop/projects/SfMLearner/formatted_mars_data/12016.jpg"
        string_val: "C:/Users/rizwan.asif/Desktop/projects/SfMLearner/formatted_mars_data/10436.jpg"
        string_val: "C:/Users/rizwan.asif/Desktop/projects/SfMLearner/formatted_mars_data/12599.jpg"
        string_val: "C:/Users/rizwan.asif/Desktop/projects/SfMLearner/formatted_mars_data/1183.jpg"
        string_val: "C:/Users/rizwan.asif/Desktop/projects/SfMLearner/formatted_mars_data/11605.jpg"
        string_val: "C:/Users/rizwan.asif/Desktop/projects/SfMLearner/formatted_mars_data/119.jpg"
        string_val: "C:/Users/rizwan.asif/Desktop/projects/SfMLearner/formatted_mars_data/10586.jpg"
        string_val: "C:/Users/rizwan.asif/Desktop/projects/SfMLearner/formatted_mars_data/10348.jpg"
        string_val: "C:/Users/rizwan.asif/Desktop/projects/SfMLearner/formatted_mars_data/10615.jpg"
        string_val: "C:/Users/rizwan.asif/Desktop/projects/SfMLearner/formatted_mars_data/10229.jpg"
        string_val: "C:/Users/rizwan.asif/Desktop/projects/SfMLearner/formatted_mars_data/11627.jpg"
        string_val: "C:/Users/rizwan.asif/Desktop/projects/SfMLearner/formatted_mars_data/10154.jpg"
        string_val: "C:/Users/rizwan.asif/Desktop/projects/SfMLearner/formatted_mars_data/11102.jpg"
        string_val: "C:/Users/rizwan.asif/Desktop/projects/SfMLearner/formatted_mars_data/10227.jpg"
        string_val: "C:/Users/rizwan.asif/Desktop/projects/SfMLearner/formatted_mars_data/12578.jpg"
        string_val: "C:/Users/rizwan.asif/Desktop/projects/SfMLearner/formatted_mars_data/12434.jpg"
        string_val: "C:/Users/rizwan.asif/Desktop/projects/SfMLearner/formatted_mars_data/1093.jpg"
        string_val: "C:/Users/rizwan.asif/Desktop/projects/SfMLearner/formatted_mars_data/12048.jpg"
        string_val: "C:/Users/rizwan.asif/Desktop/projects/SfMLearner/formatted_mars_data/10587.jpg"
        string_val: "C:/Users/rizwan.asif/Desktop/projects/SfMLearner/formatted_mars_data/11986.jpg"
        string_val: "C:/Users/rizwan.asif/Desktop/projects/SfMLearner/formatted_mars_data/100.jpg"
        string_val: "C:/Users/rizwan.asif/Desktop/projects/SfMLearner/formatted_mars_data/12277.jpg"
        string_val: "C:/Users/rizwan.asif/Desktop/projects/SfMLearner/formatted_mars_data/12008.jpg"
        string_val: "C:/Users/rizwan.asif/Desktop/projects/SfMLearner/formatted_mars_data/11631.jpg"
        string_val: "C:/Users/rizwan.asif/Desktop/projects/SfMLearner/formatted_mars_data/12549.jpg"
        string_val: "C:/Users/rizwan.asif/Desktop/projects/SfMLearner/formatted_mars_data/11801.jpg"
        string_val: "C:/Users/rizwan.asif/Desktop/projects/SfMLearner/formatted_mars_data/12423.jpg"
        string_val: "C:/Users/rizwan.asif/Desktop/projects/SfMLearner/formatted_mars_data/10422.jpg"
        string_val: "C:/Users/rizwan.asif/Desktop/projects/SfMLearner/formatted_mars_data/10833.jpg"
        string_val: "C:/Users/rizwan.asif/Desktop/projects/SfMLearner/formatted_mars_data/115.jpg"
        string_val: "C:/Users/rizwan.asif/Desktop/projects/SfMLearner/formatted_mars_data/10829.jpg"
        string_val: "C:/Users/rizwan.asif/Desktop/projects/SfMLearner/formatted_mars_data/11918.jpg"
        string_val: "C:/Users/rizwan.asif/Desktop/projects/SfMLearner/formatted_mars_data/10744.jpg"
        string_val: "C:/Users/rizwan.asif/Desktop/projects/SfMLearner/formatted_mars_data/1199.jpg"
        string_val: "C:/Users/rizwan.asif/Desktop/projects/SfMLearner/formatted_mars_data/11767.jpg"
        string_val: "C:/Users/rizwan.asif/Desktop/projects/SfMLearner/formatted_mars_data/10198.jpg"
        string_val: "C:/Users/rizwan.asif/Desktop/projects/SfMLearner/formatted_mars_data/11820.jpg"
        string_val: "C:/Users/rizwan.asif/Desktop/projects/SfMLearner/formatted_mars_data/11019.jpg"
        string_val: "C:/Users/rizwan.asif/Desktop/projects/SfMLearner/formatted_mars_data/11876.jpg"
        string_val: "C:/Users/rizwan.asif/Desktop/projects/SfMLearner/formatted_mars_data/12506.jpg"
        string_val: "C:/Users/rizwan.asif/Desktop/projects/SfMLearner/formatted_mars_data/11641.jpg"
        string_val: "C:/Users/rizwan.asif/Desktop/projects/SfMLearner/formatted_mars_data/10563.jpg"
        string_val: "C:/Users/rizwan.asif/Desktop/projects/SfMLearner/formatted_mars_data/11232.jpg"
        string_val: "C:/Users/rizwan.asif/Desktop/projects/SfMLearner/formatted_mars_data/12637.jpg"
        string_val: "C:/Users/rizwan.asif/Desktop/projects/SfMLearner/formatted_mars_data/11362.jpg"
        string_val: "C:/Users/rizwan.asif/Desktop/projects/SfMLearner/formatted_mars_data/10421.jpg"
        string_val: "C:/Users/rizwan.asif/Desktop/projects/SfMLearner/formatted_mars_data/10068.jpg"
        string_val: "C:/Users/rizwan.asif/Desktop/projects/SfMLearner/formatted_mars_data/11385.jpg"
        string_val: "C:/Users/rizwan.asif/Desktop/projects/SfMLearner/formatted_mars_data/12248.jpg"
        string_val: "C:/Users/rizwan.asif/Desktop/projects/SfMLearner/formatted_mars_data/11495.jpg"
        string_val: "C:/Users/rizwan.asif/Desktop/projects/SfMLearner/formatted_mars_data/10387.jpg"
        string_val: "C:/Users/rizwan.asif/Desktop/projects/SfMLearner/formatted_mars_data/10727.jpg"
        string_val: "C:/Users/rizwan.asif/Desktop/projects/SfMLearner/formatted_mars_data/1212.jpg"
        string_val: "C:/Users/rizwan.asif/Desktop/projects/SfMLearner/formatted_mars_data/11165.jpg"
        string_val: "C:/Users/rizwan.asif/Desktop/projects/SfMLearner/formatted_mars_data/11612.jpg"
        string_val: "C:/Users/rizwan.asif/Desktop/projects/SfMLearner/formatted_mars_data/1051.jpg"
        string_val: "C:/Users/rizwan.asif/Desktop/projects/SfMLearner/formatted_mars_data/12164.jpg"
        string_val: "C:/Users/rizwan.asif/Desktop/projects/SfMLearner/formatted_mars_data/10131.jpg"
        string_val: "C:/Users/rizwan.asif/Desktop/projects/SfMLearner/formatted_mars_data/12294.jpg"
        string_val: "C:/Users/rizwan.asif/Desktop/projects/SfMLearner/formatted_mars_data/12208.jpg"
        string_val: "C:/Users/rizwan.asif/Desktop/projects/SfMLearner/formatted_mars_data/10279.jpg"
        string_val: "C:/Users/rizwan.asif/Desktop/projects/SfMLearner/formatted_mars_data/11611.jpg"
        string_val: "C:/Users/rizwan.asif/Desktop/projects/SfMLearner/formatted_mars_data/11844.jpg"
        string_val: "C:/Users/rizwan.asif/Desktop/projects/SfMLearner/formatted_mars_data/12019.jpg"
        string_val: "C:/Users/rizwan.asif/Desktop/projects/SfMLearner/formatted_mars_data/12465.jpg"
        string_val: "C:/Users/rizwan.asif/Desktop/projects/SfMLearner/formatted_mars_data/10529.jpg"
        string_val: "C:/Users/rizwan.asif/Desktop/projects/SfMLearner/formatted_mars_data/10871.jpg"
        string_val: "C:/Users/rizwan.asif/Desktop/projects/SfMLearner/formatted_mars_data/12611.jpg"
        string_val: "C:/Users/rizwan.asif/Desktop/projects/SfMLearner/formatted_mars_data/12400.jpg"
        string_val: "C:/Users/rizwan.asif/Desktop/projects/SfMLearner/formatted_mars_data/10707.jpg"
        string_val: "C:/Users/rizwan.asif/Desktop/projects/SfMLearner/formatted_mars_data/12433.jpg"
        string_val: "C:/Users/rizwan.asif/Desktop/projects/SfMLearner/formatted_mars_data/10757.jpg"
        string_val: "C:/Users/rizwan.asif/Desktop/projects/SfMLearner/formatted_mars_data/11974.jpg"
        string_val: "C:/Users/rizwan.asif/Desktop/projects/SfMLearner/formatted_mars_data/11726.jpg"
        string_val: "C:/Users/rizwan.asif/Desktop/projects/SfMLearner/formatted_mars_data/1079.jpg"
        string_val: "C:/Users/rizwan.asif/Desktop/projects/SfMLearner/formatted_mars_data/11625.jpg"
        string_val: "C:/Users/rizwan.asif/Desktop/projects/SfMLearner/formatted_mars_data/11679.jpg"
        string_val: "C:/Users/rizwan.asif/Desktop/projects/SfMLearner/formatted_mars_data/11677.jpg"
        string_val: "C:/Users/rizwan.asif/Desktop/projects/SfMLearner/formatted_mars_data/11752.jpg"
        string_val: "C:/Users/rizwan.asif/Desktop/projects/SfMLearner/formatted_mars_data/10230.jpg"
        string_val: "C:/Users/rizwan.asif/Desktop/projects/SfMLearner/formatted_mars_data/11507.jpg"
        string_val: "C:/Users/rizwan.asif/Desktop/projects/SfMLearner/formatted_mars_data/10223.jpg"
        string_val: "C:/Users/rizwan.asif/Desktop/projects/SfMLearner/formatted_mars_data/117.jpg"
        string_val: "C:/Users/rizwan.asif/Desktop/projects/SfMLearner/formatted_mars_data/10206.jpg"
        string_val: "C:/Users/rizwan.asif/Desktop/projects/SfMLearner/formatted_mars_data/11186.jpg"
        string_val: "C:/Users/rizwan.asif/Desktop/projects/SfMLearner/formatted_mars_data/11011.jpg"
        string_val: "C:/Users/rizwan.asif/Desktop/projects/SfMLearner/formatted_mars_data/10898.jpg"
        string_val: "C:/Users/rizwan.asif/Desktop/projects/SfMLearner/formatted_mars_data/10994.jpg"
        string_val: "C:/Users/rizwan.asif/Desktop/projects/SfMLearner/formatted_mars_data/10122.jpg"
        string_val: "C:/Users/rizwan.asif/Desktop/projects/SfMLearner/formatted_mars_data/11293.jpg"
        string_val: "C:/Users/rizwan.asif/Desktop/projects/SfMLearner/formatted_mars_data/11616.jpg"
        string_val: "C:/Users/rizwan.asif/Desktop/projects/SfMLearner/formatted_mars_data/10671.jpg"
        string_val: "C:/Users/rizwan.asif/Desktop/projects/SfMLearner/formatted_mars_data/12263.jpg"
        string_val: "C:/Users/rizwan.asif/Desktop/projects/SfMLearner/formatted_mars_data/10495.jpg"
        string_val: "C:/Users/rizwan.asif/Desktop/projects/SfMLearner/formatted_mars_data/11328.jpg"
        string_val: "C:/Users/rizwan.asif/Desktop/projects/SfMLearner/formatted_mars_data/1225.jpg"
        string_val: "C:/Users/rizwan.asif/Desktop/projects/SfMLearner/formatted_mars_data/10589.jpg"
        string_val: "C:/Users/rizwan.asif/Desktop/projects/SfMLearner/formatted_mars_data/11814.jpg"
        string_val: "C:/Users/rizwan.asif/Desktop/projects/SfMLearner/formatted_mars_data/10352.jpg"
        string_val: "C:/Users/rizwan.asif/Desktop/projects/SfMLearner/formatted_mars_data/12028.jpg"
        string_val: "C:/Users/rizwan.asif/Desktop/projects/SfMLearner/formatted_mars_data/10921.jpg"
        string_val: "C:/Users/rizwan.asif/Desktop/projects/SfMLearner/formatted_mars_data/10559.jpg"
        string_val: "C:/Users/rizwan.asif/Desktop/projects/SfMLearner/formatted_mars_data/12581.jpg"
        string_val: "C:/Users/rizwan.asif/Desktop/projects/SfMLearner/formatted_mars_data/11828.jpg"
        string_val: "C:/Users/rizwan.asif/Desktop/projects/SfMLearner/formatted_mars_data/10019.jpg"
        string_val: "C:/Users/rizwan.asif/Desktop/projects/SfMLearner/formatted_mars_data/10392.jpg"
        string_val: "C:/Users/rizwan.asif/Desktop/projects/SfMLearner/formatted_mars_data/11912.jpg"
        string_val: "C:/Users/rizwan.asif/Desktop/projects/SfMLearner/formatted_mars_data/10935.jpg"
        string_val: "C:/Users/rizwan.asif/Desktop/projects/SfMLearner/formatted_mars_data/12335.jpg"
        string_val: "C:/Users/rizwan.asif/Desktop/projects/SfMLearner/formatted_mars_data/12269.jpg"
        string_val: "C:/Users/rizwan.asif/Desktop/projects/SfMLearner/formatted_mars_data/12106.jpg"
        string_val: "C:/Users/rizwan.asif/Desktop/projects/SfMLearner/formatted_mars_data/10008.jpg"
        string_val: "C:/Users/rizwan.asif/Desktop/projects/SfMLearner/formatted_mars_data/10881.jpg"
        string_val: "C:/Users/rizwan.asif/Desktop/projects/SfMLearner/formatted_mars_data/11747.jpg"
        string_val: "C:/Users/rizwan.asif/Desktop/projects/SfMLearner/formatted_mars_data/11863.jpg"
        string_val: "C:/Users/rizwan.asif/Desktop/projects/SfMLearner/formatted_mars_data/10058.jpg"
        string_val: "C:/Users/rizwan.asif/Desktop/projects/SfMLearner/formatted_mars_data/11442.jpg"
        string_val: "C:/Users/rizwan.asif/Desktop/projects/SfMLearner/formatted_mars_data/10922.jpg"
        string_val: "C:/Users/rizwan.asif/Desktop/projects/SfMLearner/formatted_mars_data/11464.jpg"
        string_val: "C:/Users/rizwan.asif/Desktop/projects/SfMLearner/formatted_mars_data/10291.jpg"
        string_val: "C:/Users/rizwan.asif/Desktop/projects/SfMLearner/formatted_mars_data/12406.jpg"
        string_val: "C:/Users/rizwan.asif/Desktop/projects/SfMLearner/formatted_mars_data/1241.jpg"
        string_val: "C:/Users/rizwan.asif/Desktop/projects/SfMLearner/formatted_mars_data/11322.jpg"
        string_val: "C:/Users/rizwan.asif/Desktop/projects/SfMLearner/formatted_mars_data/10317.jpg"
        string_val: "C:/Users/rizwan.asif/Desktop/projects/SfMLearner/formatted_mars_data/10696.jpg"
        string_val: "C:/Users/rizwan.asif/Desktop/projects/SfMLearner/formatted_mars_data/10052.jpg"
        string_val: "C:/Users/rizwan.asif/Desktop/projects/SfMLearner/formatted_mars_data/12498.jpg"
        string_val: "C:/Users/rizwan.asif/Desktop/projects/SfMLearner/formatted_mars_data/11962.jpg"
        string_val: "C:/Users/rizwan.asif/Desktop/projects/SfMLearner/formatted_mars_data/11064.jpg"
        string_val: "C:/Users/rizwan.asif/Desktop/projects/SfMLearner/formatted_mars_data/11713.jpg"
        string_val: "C:/Users/rizwan.asif/Desktop/projects/SfMLearner/formatted_mars_data/11427.jpg"
        string_val: "C:/Users/rizwan.asif/Desktop/projects/SfMLearner/formatted_mars_data/11942.jpg"
        string_val: "C:/Users/rizwan.asif/Desktop/projects/SfMLearner/formatted_mars_data/11586.jpg"
        string_val: "C:/Users/rizwan.asif/Desktop/projects/SfMLearner/formatted_mars_data/12286.jpg"
        string_val: "C:/Users/rizwan.asif/Desktop/projects/SfMLearner/formatted_mars_data/11206.jpg"
        string_val: "C:/Users/rizwan.asif/Desktop/projects/SfMLearner/formatted_mars_data/11284.jpg"
        string_val: "C:/Users/rizwan.asif/Desktop/projects/SfMLearner/formatted_mars_data/11973.jpg"
        string_val: "C:/Users/rizwan.asif/Desktop/projects/SfMLearner/formatted_mars_data/11711.jpg"
        string_val: "C:/Users/rizwan.asif/Desktop/projects/SfMLearner/formatted_mars_data/11409.jpg"
        string_val: "C:/Users/rizwan.asif/Desktop/projects/SfMLearner/formatted_mars_data/1145.jpg"
        string_val: "C:/Users/rizwan.asif/Desktop/projects/SfMLearner/formatted_mars_data/10622.jpg"
        string_val: "C:/Users/rizwan.asif/Desktop/projects/SfMLearner/formatted_mars_data/10664.jpg"
        string_val: "C:/Users/rizwan.asif/Desktop/projects/SfMLearner/formatted_mars_data/10650.jpg"
        string_val: "C:/Users/rizwan.asif/Desktop/projects/SfMLearner/formatted_mars_data/104.jpg"
        string_val: "C:/Users/rizwan.asif/Desktop/projects/SfMLearner/formatted_mars_data/11840.jpg"
        string_val: "C:/Users/rizwan.asif/Desktop/projects/SfMLearner/formatted_mars_data/10437.jpg"
        string_val: "C:/Users/rizwan.asif/Desktop/projects/SfMLearner/formatted_mars_data/11900.jpg"
        string_val: "C:/Users/rizwan.asif/Desktop/projects/SfMLearner/formatted_mars_data/11750.jpg"
        string_val: "C:/Users/rizwan.asif/Desktop/projects/SfMLearner/formatted_mars_data/12504.jpg"
        string_val: "C:/Users/rizwan.asif/Desktop/projects/SfMLearner/formatted_mars_data/11239.jpg"
        string_val: "C:/Users/rizwan.asif/Desktop/projects/SfMLearner/formatted_mars_data/1100.jpg"
        string_val: "C:/Users/rizwan.asif/Desktop/projects/SfMLearner/formatted_mars_data/11457.jpg"
        string_val: "C:/Users/rizwan.asif/Desktop/projects/SfMLearner/formatted_mars_data/11773.jpg"
        string_val: "C:/Users/rizwan.asif/Desktop/projects/SfMLearner/formatted_mars_data/1231.jpg"
        string_val: "C:/Users/rizwan.asif/Desktop/projects/SfMLearner/formatted_mars_data/12469.jpg"
        string_val: "C:/Users/rizwan.asif/Desktop/projects/SfMLearner/formatted_mars_data/12624.jpg"
        string_val: "C:/Users/rizwan.asif/Desktop/projects/SfMLearner/formatted_mars_data/11336.jpg"
        string_val: "C:/Users/rizwan.asif/Desktop/projects/SfMLearner/formatted_mars_data/10213.jpg"
        string_val: "C:/Users/rizwan.asif/Desktop/projects/SfMLearner/formatted_mars_data/11678.jpg"
        string_val: "C:/Users/rizwan.asif/Desktop/projects/SfMLearner/formatted_mars_data/12370.jpg"
        string_val: "C:/Users/rizwan.asif/Desktop/projects/SfMLearner/formatted_mars_data/11850.jpg"
        string_val: "C:/Users/rizwan.asif/Desktop/projects/SfMLearner/formatted_mars_data/11856.jpg"
        string_val: "C:/Users/rizwan.asif/Desktop/projects/SfMLearner/formatted_mars_data/11294.jpg"
        string_val: "C:/Users/rizwan.asif/Desktop/projects/SfMLearner/formatted_mars_data/12184.jpg"
        string_val: "C:/Users/rizwan.asif/Desktop/projects/SfMLearner/formatted_mars_data/11518.jpg"
        string_val: "C:/Users/rizwan.asif/Desktop/projects/SfMLearner/formatted_mars_data/11542.jpg"
        string_val: "C:/Users/rizwan.asif/Desktop/projects/SfMLearner/formatted_mars_data/11053.jpg"
        string_val: "C:/Users/rizwan.asif/Desktop/projects/SfMLearner/formatted_mars_data/10698.jpg"
        string_val: "C:/Users/rizwan.asif/Desktop/projects/SfMLearner/formatted_mars_data/12080.jpg"
        string_val: "C:/Users/rizwan.asif/Desktop/projects/SfMLearner/formatted_mars_data/11620.jpg"
        string_val: "C:/Users/rizwan.asif/Desktop/projects/SfMLearner/formatted_mars_data/10301.jpg"
        string_val: "C:/Users/rizwan.asif/Desktop/projects/SfMLearner/formatted_mars_data/12176.jpg"
        string_val: "C:/Users/rizwan.asif/Desktop/projects/SfMLearner/formatted_mars_data/11145.jpg"
        string_val: "C:/Users/rizwan.asif/Desktop/projects/SfMLearner/formatted_mars_data/12623.jpg"
        string_val: "C:/Users/rizwan.asif/Desktop/projects/SfMLearner/formatted_mars_data/10327.jpg"
        string_val: "C:/Users/rizwan.asif/Desktop/projects/SfMLearner/formatted_mars_data/1037.jpg"
        string_val: "C:/Users/rizwan.asif/Desktop/projects/SfMLearner/formatted_mars_data/1077.jpg"
        string_val: "C:/Users/rizwan.asif/Desktop/projects/SfMLearner/formatted_mars_data/12130.jpg"
        string_val: "C:/Users/rizwan.asif/Desktop/projects/SfMLearner/formatted_mars_data/12092.jpg"
        string_val: "C:/Users/rizwan.asif/Desktop/projects/SfMLearner/formatted_mars_data/11940.jpg"
        string_val: "C:/Users/rizwan.asif/Desktop/projects/SfMLearner/formatted_mars_data/11602.jpg"
        string_val: "C:/Users/rizwan.asif/Desktop/projects/SfMLearner/formatted_mars_data/11185.jpg"
        string_val: "C:/Users/rizwan.asif/Desktop/projects/SfMLearner/formatted_mars_data/11729.jpg"
        string_val: "C:/Users/rizwan.asif/Desktop/projects/SfMLearner/formatted_mars_data/12254.jpg"
        string_val: "C:/Users/rizwan.asif/Desktop/projects/SfMLearner/formatted_mars_data/10066.jpg"
        string_val: "C:/Users/rizwan.asif/Desktop/projects/SfMLearner/formatted_mars_data/11146.jpg"
        string_val: "C:/Users/rizwan.asif/Desktop/projects/SfMLearner/formatted_mars_data/1240.jpg"
        string_val: "C:/Users/rizwan.asif/Desktop/projects/SfMLearner/formatted_mars_data/11235.jpg"
        string_val: "C:/Users/rizwan.asif/Desktop/projects/SfMLearner/formatted_mars_data/10982.jpg"
        string_val: "C:/Users/rizwan.asif/Desktop/projects/SfMLearner/formatted_mars_data/11568.jpg"
        string_val: "C:/Users/rizwan.asif/Desktop/projects/SfMLearner/formatted_mars_data/11028.jpg"
        string_val: "C:/Users/rizwan.asif/Desktop/projects/SfMLearner/formatted_mars_data/10488.jpg"
        string_val: "C:/Users/rizwan.asif/Desktop/projects/SfMLearner/formatted_mars_data/10722.jpg"
        string_val: "C:/Users/rizwan.asif/Desktop/projects/SfMLearner/formatted_mars_data/11759.jpg"
        string_val: "C:/Users/rizwan.asif/Desktop/projects/SfMLearner/formatted_mars_data/10183.jpg"
        string_val: "C:/Users/rizwan.asif/Desktop/projects/SfMLearner/formatted_mars_data/11364.jpg"
        string_val: "C:/Users/rizwan.asif/Desktop/projects/SfMLearner/formatted_mars_data/1256.jpg"
        string_val: "C:/Users/rizwan.asif/Desktop/projects/SfMLearner/formatted_mars_data/11109.jpg"
        string_val: "C:/Users/rizwan.asif/Desktop/projects/SfMLearner/formatted_mars_data/11923.jpg"
        string_val: "C:/Users/rizwan.asif/Desktop/projects/SfMLearner/formatted_mars_data/11047.jpg"
        string_val: "C:/Users/rizwan.asif/Desktop/projects/SfMLearner/formatted_mars_data/11295.jpg"
        string_val: "C:/Users/rizwan.asif/Desktop/projects/SfMLearner/formatted_mars_data/12421.jpg"
        string_val: "C:/Users/rizwan.asif/Desktop/projects/SfMLearner/formatted_mars_data/10598.jpg"
        string_val: "C:/Users/rizwan.asif/Desktop/projects/SfMLearner/formatted_mars_data/11681.jpg"
        string_val: "C:/Users/rizwan.asif/Desktop/projects/SfMLearner/formatted_mars_data/10769.jpg"
        string_val: "C:/Users/rizwan.asif/Desktop/projects/SfMLearner/formatted_mars_data/11198.jpg"
        string_val: "C:/Users/rizwan.asif/Desktop/projects/SfMLearner/formatted_mars_data/12135.jpg"
        string_val: "C:/Users/rizwan.asif/Desktop/projects/SfMLearner/formatted_mars_data/10804.jpg"
        string_val: "C:/Users/rizwan.asif/Desktop/projects/SfMLearner/formatted_mars_data/10570.jpg"
        string_val: "C:/Users/rizwan.asif/Desktop/projects/SfMLearner/formatted_mars_data/12409.jpg"
        string_val: "C:/Users/rizwan.asif/Desktop/projects/SfMLearner/formatted_mars_data/126.jpg"
        string_val: "C:/Users/rizwan.asif/Desktop/projects/SfMLearner/formatted_mars_data/11983.jpg"
        string_val: "C:/Users/rizwan.asif/Desktop/projects/SfMLearner/formatted_mars_data/10117.jpg"
        string_val: "C:/Users/rizwan.asif/Desktop/projects/SfMLearner/formatted_mars_data/10273.jpg"
        string_val: "C:/Users/rizwan.asif/Desktop/projects/SfMLearner/formatted_mars_data/10849.jpg"
        string_val: "C:/Users/rizwan.asif/Desktop/projects/SfMLearner/formatted_mars_data/10390.jpg"
        string_val: "C:/Users/rizwan.asif/Desktop/projects/SfMLearner/formatted_mars_data/12545.jpg"
        string_val: "C:/Users/rizwan.asif/Desktop/projects/SfMLearner/formatted_mars_data/12522.jpg"
        string_val: "C:/Users/rizwan.asif/Desktop/projects/SfMLearner/formatted_mars_data/10420.jpg"
        string_val: "C:/Users/rizwan.asif/Desktop/projects/SfMLearner/formatted_mars_data/10560.jpg"
        string_val: "C:/Users/rizwan.asif/Desktop/projects/SfMLearner/formatted_mars_data/11953.jpg"
        string_val: "C:/Users/rizwan.asif/Desktop/projects/SfMLearner/formatted_mars_data/11796.jpg"
        string_val: "C:/Users/rizwan.asif/Desktop/projects/SfMLearner/formatted_mars_data/10380.jpg"
        string_val: "C:/Users/rizwan.asif/Desktop/projects/SfMLearner/formatted_mars_data/10109.jpg"
        string_val: "C:/Users/rizwan.asif/Desktop/projects/SfMLearner/formatted_mars_data/11791.jpg"
        string_val: "C:/Users/rizwan.asif/Desktop/projects/SfMLearner/formatted_mars_data/10682.jpg"
        string_val: "C:/Users/rizwan.asif/Desktop/projects/SfMLearner/formatted_mars_data/12170.jpg"
        string_val: "C:/Users/rizwan.asif/Desktop/projects/SfMLearner/formatted_mars_data/11266.jpg"
        string_val: "C:/Users/rizwan.asif/Desktop/projects/SfMLearner/formatted_mars_data/10096.jpg"
        string_val: "C:/Users/rizwan.asif/Desktop/projects/SfMLearner/formatted_mars_data/10603.jpg"
        string_val: "C:/Users/rizwan.asif/Desktop/projects/SfMLearner/formatted_mars_data/11240.jpg"
        string_val: "C:/Users/rizwan.asif/Desktop/projects/SfMLearner/formatted_mars_data/12123.jpg"
        string_val: "C:/Users/rizwan.asif/Desktop/projects/SfMLearner/formatted_mars_data/10605.jpg"
        string_val: "C:/Users/rizwan.asif/Desktop/projects/SfMLearner/formatted_mars_data/10853.jpg"
        string_val: "C:/Users/rizwan.asif/Desktop/projects/SfMLearner/formatted_mars_data/12494.jpg"
        string_val: "C:/Users/rizwan.asif/Desktop/projects/SfMLearner/formatted_mars_data/10929.jpg"
        string_val: "C:/Users/rizwan.asif/Desktop/projects/SfMLearner/formatted_mars_data/12031.jpg"
        string_val: "C:/Users/rizwan.asif/Desktop/projects/SfMLearner/formatted_mars_data/1264.jpg"
        string_val: "C:/Users/rizwan.asif/Desktop/projects/SfMLearner/formatted_mars_data/10584.jpg"
        string_val: "C:/Users/rizwan.asif/Desktop/projects/SfMLearner/formatted_mars_data/11600.jpg"
        string_val: "C:/Users/rizwan.asif/Desktop/projects/SfMLearner/formatted_mars_data/12216.jpg"
        string_val: "C:/Users/rizwan.asif/Desktop/projects/SfMLearner/formatted_mars_data/10657.jpg"
        string_val: "C:/Users/rizwan.asif/Desktop/projects/SfMLearner/formatted_mars_data/11443.jpg"
        string_val: "C:/Users/rizwan.asif/Desktop/projects/SfMLearner/formatted_mars_data/10538.jpg"
        string_val: "C:/Users/rizwan.asif/Desktop/projects/SfMLearner/formatted_mars_data/11978.jpg"
        string_val: "C:/Users/rizwan.asif/Desktop/projects/SfMLearner/formatted_mars_data/10896.jpg"
        string_val: "C:/Users/rizwan.asif/Desktop/projects/SfMLearner/formatted_mars_data/11504.jpg"
        string_val: "C:/Users/rizwan.asif/Desktop/projects/SfMLearner/formatted_mars_data/11508.jpg"
        string_val: "C:/Users/rizwan.asif/Desktop/projects/SfMLearner/formatted_mars_data/12580.jpg"
        string_val: "C:/Users/rizwan.asif/Desktop/projects/SfMLearner/formatted_mars_data/11143.jpg"
        string_val: "C:/Users/rizwan.asif/Desktop/projects/SfMLearner/formatted_mars_data/11566.jpg"
        string_val: "C:/Users/rizwan.asif/Desktop/projects/SfMLearner/formatted_mars_data/10581.jpg"
        string_val: "C:/Users/rizwan.asif/Desktop/projects/SfMLearner/formatted_mars_data/10434.jpg"
        string_val: "C:/Users/rizwan.asif/Desktop/projects/SfMLearner/formatted_mars_data/10349.jpg"
        string_val: "C:/Users/rizwan.asif/Desktop/projects/SfMLearner/formatted_mars_data/11009.jpg"
        string_val: "C:/Users/rizwan.asif/Desktop/projects/SfMLearner/formatted_mars_data/11853.jpg"
        string_val: "C:/Users/rizwan.asif/Desktop/projects/SfMLearner/formatted_mars_data/11673.jpg"
        string_val: "C:/Users/rizwan.asif/Desktop/projects/SfMLearner/formatted_mars_data/10167.jpg"
        string_val: "C:/Users/rizwan.asif/Desktop/projects/SfMLearner/formatted_mars_data/12077.jpg"
        string_val: "C:/Users/rizwan.asif/Desktop/projects/SfMLearner/formatted_mars_data/10848.jpg"
        string_val: "C:/Users/rizwan.asif/Desktop/projects/SfMLearner/formatted_mars_data/10604.jpg"
        string_val: "C:/Users/rizwan.asif/Desktop/projects/SfMLearner/formatted_mars_data/12488.jpg"
        string_val: "C:/Users/rizwan.asif/Desktop/projects/SfMLearner/formatted_mars_data/10608.jpg"
        string_val: "C:/Users/rizwan.asif/Desktop/projects/SfMLearner/formatted_mars_data/10027.jpg"
        string_val: "C:/Users/rizwan.asif/Desktop/projects/SfMLearner/formatted_mars_data/10840.jpg"
        string_val: "C:/Users/rizwan.asif/Desktop/projects/SfMLearner/formatted_mars_data/12550.jpg"
        string_val: "C:/Users/rizwan.asif/Desktop/projects/SfMLearner/formatted_mars_data/1160.jpg"
        string_val: "C:/Users/rizwan.asif/Desktop/projects/SfMLearner/formatted_mars_data/11243.jpg"
        string_val: "C:/Users/rizwan.asif/Desktop/projects/SfMLearner/formatted_mars_data/12633.jpg"
        string_val: "C:/Users/rizwan.asif/Desktop/projects/SfMLearner/formatted_mars_data/11016.jpg"
        string_val: "C:/Users/rizwan.asif/Desktop/projects/SfMLearner/formatted_mars_data/12507.jpg"
        string_val: "C:/Users/rizwan.asif/Desktop/projects/SfMLearner/formatted_mars_data/11574.jpg"
        string_val: "C:/Users/rizwan.asif/Desktop/projects/SfMLearner/formatted_mars_data/11267.jpg"
        string_val: "C:/Users/rizwan.asif/Desktop/projects/SfMLearner/formatted_mars_data/10074.jpg"
        string_val: "C:/Users/rizwan.asif/Desktop/projects/SfMLearner/formatted_mars_data/11663.jpg"
        string_val: "C:/Users/rizwan.asif/Desktop/projects/SfMLearner/formatted_mars_data/10026.jpg"
        string_val: "C:/Users/rizwan.asif/Desktop/projects/SfMLearner/formatted_mars_data/11015.jpg"
        string_val: "C:/Users/rizwan.asif/Desktop/projects/SfMLearner/formatted_mars_data/11270.jpg"
        string_val: "C:/Users/rizwan.asif/Desktop/projects/SfMLearner/formatted_mars_data/11161.jpg"
        string_val: "C:/Users/rizwan.asif/Desktop/projects/SfMLearner/formatted_mars_data/11021.jpg"
        string_val: "C:/Users/rizwan.asif/Desktop/projects/SfMLearner/formatted_mars_data/11510.jpg"
        string_val: "C:/Users/rizwan.asif/Desktop/projects/SfMLearner/formatted_mars_data/1193.jpg"
        string_val: "C:/Users/rizwan.asif/Desktop/projects/SfMLearner/formatted_mars_data/10282.jpg"
        string_val: "C:/Users/rizwan.asif/Desktop/projects/SfMLearner/formatted_mars_data/10133.jpg"
        string_val: "C:/Users/rizwan.asif/Desktop/projects/SfMLearner/formatted_mars_data/11068.jpg"
        string_val: "C:/Users/rizwan.asif/Desktop/projects/SfMLearner/formatted_mars_data/11033.jpg"
        string_val: "C:/Users/rizwan.asif/Desktop/projects/SfMLearner/formatted_mars_data/10663.jpg"
        string_val: "C:/Users/rizwan.asif/Desktop/projects/SfMLearner/formatted_mars_data/10852.jpg"
        string_val: "C:/Users/rizwan.asif/Desktop/projects/SfMLearner/formatted_mars_data/1065.jpg"
        string_val: "C:/Users/rizwan.asif/Desktop/projects/SfMLearner/formatted_mars_data/12168.jpg"
        string_val: "C:/Users/rizwan.asif/Desktop/projects/SfMLearner/formatted_mars_data/1210.jpg"
        string_val: "C:/Users/rizwan.asif/Desktop/projects/SfMLearner/formatted_mars_data/10937.jpg"
        string_val: "C:/Users/rizwan.asif/Desktop/projects/SfMLearner/formatted_mars_data/11156.jpg"
        string_val: "C:/Users/rizwan.asif/Desktop/projects/SfMLearner/formatted_mars_data/11429.jpg"
        string_val: "C:/Users/rizwan.asif/Desktop/projects/SfMLearner/formatted_mars_data/11355.jpg"
        string_val: "C:/Users/rizwan.asif/Desktop/projects/SfMLearner/formatted_mars_data/12567.jpg"
        string_val: "C:/Users/rizwan.asif/Desktop/projects/SfMLearner/formatted_mars_data/10365.jpg"
        string_val: "C:/Users/rizwan.asif/Desktop/projects/SfMLearner/formatted_mars_data/11965.jpg"
        string_val: "C:/Users/rizwan.asif/Desktop/projects/SfMLearner/formatted_mars_data/12020.jpg"
        string_val: "C:/Users/rizwan.asif/Desktop/projects/SfMLearner/formatted_mars_data/12589.jpg"
        string_val: "C:/Users/rizwan.asif/Desktop/projects/SfMLearner/formatted_mars_data/10876.jpg"
        string_val: "C:/Users/rizwan.asif/Desktop/projects/SfMLearner/formatted_mars_data/10158.jpg"
        string_val: "C:/Users/rizwan.asif/Desktop/projects/SfMLearner/formatted_mars_data/11303.jpg"
        string_val: "C:/Users/rizwan.asif/Desktop/projects/SfMLearner/formatted_mars_data/10287.jpg"
        string_val: "C:/Users/rizwan.asif/Desktop/projects/SfMLearner/formatted_mars_data/11108.jpg"
        string_val: "C:/Users/rizwan.asif/Desktop/projects/SfMLearner/formatted_mars_data/10814.jpg"
        string_val: "C:/Users/rizwan.asif/Desktop/projects/SfMLearner/formatted_mars_data/11430.jpg"
        string_val: "C:/Users/rizwan.asif/Desktop/projects/SfMLearner/formatted_mars_data/12659.jpg"
        string_val: "C:/Users/rizwan.asif/Desktop/projects/SfMLearner/formatted_mars_data/11084.jpg"
        string_val: "C:/Users/rizwan.asif/Desktop/projects/SfMLearner/formatted_mars_data/12509.jpg"
        string_val: "C:/Users/rizwan.asif/Desktop/projects/SfMLearner/formatted_mars_data/12126.jpg"
        string_val: "C:/Users/rizwan.asif/Desktop/projects/SfMLearner/formatted_mars_data/12172.jpg"
        string_val: "C:/Users/rizwan.asif/Desktop/projects/SfMLearner/formatted_mars_data/10773.jpg"
        string_val: "C:/Users/rizwan.asif/Desktop/projects/SfMLearner/formatted_mars_data/12244.jpg"
        string_val: "C:/Users/rizwan.asif/Desktop/projects/SfMLearner/formatted_mars_data/12440.jpg"
        string_val: "C:/Users/rizwan.asif/Desktop/projects/SfMLearner/formatted_mars_data/11452.jpg"
        string_val: "C:/Users/rizwan.asif/Desktop/projects/SfMLearner/formatted_mars_data/10486.jpg"
        string_val: "C:/Users/rizwan.asif/Desktop/projects/SfMLearner/formatted_mars_data/11739.jpg"
        string_val: "C:/Users/rizwan.asif/Desktop/projects/SfMLearner/formatted_mars_data/10653.jpg"
        string_val: "C:/Users/rizwan.asif/Desktop/projects/SfMLearner/formatted_mars_data/10311.jpg"
        string_val: "C:/Users/rizwan.asif/Desktop/projects/SfMLearner/formatted_mars_data/12353.jpg"
        string_val: "C:/Users/rizwan.asif/Desktop/projects/SfMLearner/formatted_mars_data/10747.jpg"
        string_val: "C:/Users/rizwan.asif/Desktop/projects/SfMLearner/formatted_mars_data/12001.jpg"
        string_val: "C:/Users/rizwan.asif/Desktop/projects/SfMLearner/formatted_mars_data/1089.jpg"
        string_val: "C:/Users/rizwan.asif/Desktop/projects/SfMLearner/formatted_mars_data/11332.jpg"
        string_val: "C:/Users/rizwan.asif/Desktop/projects/SfMLearner/formatted_mars_data/11082.jpg"
        string_val: "C:/Users/rizwan.asif/Desktop/projects/SfMLearner/formatted_mars_data/10832.jpg"
        string_val: "C:/Users/rizwan.asif/Desktop/projects/SfMLearner/formatted_mars_data/10475.jpg"
        string_val: "C:/Users/rizwan.asif/Desktop/projects/SfMLearner/formatted_mars_data/11027.jpg"
        string_val: "C:/Users/rizwan.asif/Desktop/projects/SfMLearner/formatted_mars_data/11630.jpg"
        string_val: "C:/Users/rizwan.asif/Desktop/projects/SfMLearner/formatted_mars_data/10210.jpg"
        string_val: "C:/Users/rizwan.asif/Desktop/projects/SfMLearner/formatted_mars_data/11930.jpg"
        string_val: "C:/Users/rizwan.asif/Desktop/projects/SfMLearner/formatted_mars_data/12389.jpg"
        string_val: "C:/Users/rizwan.asif/Desktop/projects/SfMLearner/formatted_mars_data/11807.jpg"
        string_val: "C:/Users/rizwan.asif/Desktop/projects/SfMLearner/formatted_mars_data/120.jpg"
        string_val: "C:/Users/rizwan.asif/Desktop/projects/SfMLearner/formatted_mars_data/10363.jpg"
        string_val: "C:/Users/rizwan.asif/Desktop/projects/SfMLearner/formatted_mars_data/11002.jpg"
        string_val: "C:/Users/rizwan.asif/Desktop/projects/SfMLearner/formatted_mars_data/10374.jpg"
        string_val: "C:/Users/rizwan.asif/Desktop/projects/SfMLearner/formatted_mars_data/1180.jpg"
        string_val: "C:/Users/rizwan.asif/Desktop/projects/SfMLearner/formatted_mars_data/11776.jpg"
        string_val: "C:/Users/rizwan.asif/Desktop/projects/SfMLearner/formatted_mars_data/10087.jpg"
        string_val: "C:/Users/rizwan.asif/Desktop/projects/SfMLearner/formatted_mars_data/10306.jpg"
        string_val: "C:/Users/rizwan.asif/Desktop/projects/SfMLearner/formatted_mars_data/1008.jpg"
        string_val: "C:/Users/rizwan.asif/Desktop/projects/SfMLearner/formatted_mars_data/11455.jpg"
        string_val: "C:/Users/rizwan.asif/Desktop/projects/SfMLearner/formatted_mars_data/11498.jpg"
        string_val: "C:/Users/rizwan.asif/Desktop/projects/SfMLearner/formatted_mars_data/12015.jpg"
        string_val: "C:/Users/rizwan.asif/Desktop/projects/SfMLearner/formatted_mars_data/12250.jpg"
        string_val: "C:/Users/rizwan.asif/Desktop/projects/SfMLearner/formatted_mars_data/10737.jpg"
        string_val: "C:/Users/rizwan.asif/Desktop/projects/SfMLearner/formatted_mars_data/12399.jpg"
        string_val: "C:/Users/rizwan.asif/Desktop/projects/SfMLearner/formatted_mars_data/11921.jpg"
        string_val: "C:/Users/rizwan.asif/Desktop/projects/SfMLearner/formatted_mars_data/10023.jpg"
        string_val: "C:/Users/rizwan.asif/Desktop/projects/SfMLearner/formatted_mars_data/11286.jpg"
        string_val: "C:/Users/rizwan.asif/Desktop/projects/SfMLearner/formatted_mars_data/12517.jpg"
        string_val: "C:/Users/rizwan.asif/Desktop/projects/SfMLearner/formatted_mars_data/10500.jpg"
        string_val: "C:/Users/rizwan.asif/Desktop/projects/SfMLearner/formatted_mars_data/11633.jpg"
        string_val: "C:/Users/rizwan.asif/Desktop/projects/SfMLearner/formatted_mars_data/10473.jpg"
        string_val: "C:/Users/rizwan.asif/Desktop/projects/SfMLearner/formatted_mars_data/10735.jpg"
        string_val: "C:/Users/rizwan.asif/Desktop/projects/SfMLearner/formatted_mars_data/10543.jpg"
        string_val: "C:/Users/rizwan.asif/Desktop/projects/SfMLearner/formatted_mars_data/10524.jpg"
        string_val: "C:/Users/rizwan.asif/Desktop/projects/SfMLearner/formatted_mars_data/11599.jpg"
        string_val: "C:/Users/rizwan.asif/Desktop/projects/SfMLearner/formatted_mars_data/1028.jpg"
        string_val: "C:/Users/rizwan.asif/Desktop/projects/SfMLearner/formatted_mars_data/11789.jpg"
        string_val: "C:/Users/rizwan.asif/Desktop/projects/SfMLearner/formatted_mars_data/10963.jpg"
        string_val: "C:/Users/rizwan.asif/Desktop/projects/SfMLearner/formatted_mars_data/1070.jpg"
        string_val: "C:/Users/rizwan.asif/Desktop/projects/SfMLearner/formatted_mars_data/11702.jpg"
        string_val: "C:/Users/rizwan.asif/Desktop/projects/SfMLearner/formatted_mars_data/12293.jpg"
        string_val: "C:/Users/rizwan.asif/Desktop/projects/SfMLearner/formatted_mars_data/12157.jpg"
        string_val: "C:/Users/rizwan.asif/Desktop/projects/SfMLearner/formatted_mars_data/11123.jpg"
        string_val: "C:/Users/rizwan.asif/Desktop/projects/SfMLearner/formatted_mars_data/10412.jpg"
        string_val: "C:/Users/rizwan.asif/Desktop/projects/SfMLearner/formatted_mars_data/12062.jpg"
        string_val: "C:/Users/rizwan.asif/Desktop/projects/SfMLearner/formatted_mars_data/12023.jpg"
        string_val: "C:/Users/rizwan.asif/Desktop/projects/SfMLearner/formatted_mars_data/10329.jpg"
        string_val: "C:/Users/rizwan.asif/Desktop/projects/SfMLearner/formatted_mars_data/10879.jpg"
        string_val: "C:/Users/rizwan.asif/Desktop/projects/SfMLearner/formatted_mars_data/10491.jpg"
        string_val: "C:/Users/rizwan.asif/Desktop/projects/SfMLearner/formatted_mars_data/11040.jpg"
        string_val: "C:/Users/rizwan.asif/Desktop/projects/SfMLearner/formatted_mars_data/12046.jpg"
        string_val: "C:/Users/rizwan.asif/Desktop/projects/SfMLearner/formatted_mars_data/10097.jpg"
        string_val: "C:/Users/rizwan.asif/Desktop/projects/SfMLearner/formatted_mars_data/10389.jpg"
        string_val: "C:/Users/rizwan.asif/Desktop/projects/SfMLearner/formatted_mars_data/10718.jpg"
        string_val: "C:/Users/rizwan.asif/Desktop/projects/SfMLearner/formatted_mars_data/11208.jpg"
        string_val: "C:/Users/rizwan.asif/Desktop/projects/SfMLearner/formatted_mars_data/12181.jpg"
        string_val: "C:/Users/rizwan.asif/Desktop/projects/SfMLearner/formatted_mars_data/12320.jpg"
        string_val: "C:/Users/rizwan.asif/Desktop/projects/SfMLearner/formatted_mars_data/10511.jpg"
        string_val: "C:/Users/rizwan.asif/Desktop/projects/SfMLearner/formatted_mars_data/11866.jpg"
        string_val: "C:/Users/rizwan.asif/Desktop/projects/SfMLearner/formatted_mars_data/11760.jpg"
        string_val: "C:/Users/rizwan.asif/Desktop/projects/SfMLearner/formatted_mars_data/11193.jpg"
        string_val: "C:/Users/rizwan.asif/Desktop/projects/SfMLearner/formatted_mars_data/10855.jpg"
        string_val: "C:/Users/rizwan.asif/Desktop/projects/SfMLearner/formatted_mars_data/11135.jpg"
        string_val: "C:/Users/rizwan.asif/Desktop/projects/SfMLearner/formatted_mars_data/11799.jpg"
        string_val: "C:/Users/rizwan.asif/Desktop/projects/SfMLearner/formatted_mars_data/11370.jpg"
        string_val: "C:/Users/rizwan.asif/Desktop/projects/SfMLearner/formatted_mars_data/11180.jpg"
        string_val: "C:/Users/rizwan.asif/Desktop/projects/SfMLearner/formatted_mars_data/106.jpg"
        string_val: "C:/Users/rizwan.asif/Desktop/projects/SfMLearner/formatted_mars_data/10444.jpg"
        string_val: "C:/Users/rizwan.asif/Desktop/projects/SfMLearner/formatted_mars_data/11577.jpg"
        string_val: "C:/Users/rizwan.asif/Desktop/projects/SfMLearner/formatted_mars_data/10798.jpg"
        string_val: "C:/Users/rizwan.asif/Desktop/projects/SfMLearner/formatted_mars_data/10544.jpg"
        string_val: "C:/Users/rizwan.asif/Desktop/projects/SfMLearner/formatted_mars_data/12284.jpg"
        string_val: "C:/Users/rizwan.asif/Desktop/projects/SfMLearner/formatted_mars_data/10137.jpg"
        string_val: "C:/Users/rizwan.asif/Desktop/projects/SfMLearner/formatted_mars_data/10243.jpg"
        string_val: "C:/Users/rizwan.asif/Desktop/projects/SfMLearner/formatted_mars_data/12304.jpg"
        string_val: "C:/Users/rizwan.asif/Desktop/projects/SfMLearner/formatted_mars_data/12642.jpg"
        string_val: "C:/Users/rizwan.asif/Desktop/projects/SfMLearner/formatted_mars_data/1226.jpg"
        string_val: "C:/Users/rizwan.asif/Desktop/projects/SfMLearner/formatted_mars_data/11987.jpg"
        string_val: "C:/Users/rizwan.asif/Desktop/projects/SfMLearner/formatted_mars_data/1131.jpg"
        string_val: "C:/Users/rizwan.asif/Desktop/projects/SfMLearner/formatted_mars_data/12443.jpg"
        string_val: "C:/Users/rizwan.asif/Desktop/projects/SfMLearner/formatted_mars_data/1134.jpg"
        string_val: "C:/Users/rizwan.asif/Desktop/projects/SfMLearner/formatted_mars_data/12595.jpg"
        string_val: "C:/Users/rizwan.asif/Desktop/projects/SfMLearner/formatted_mars_data/12272.jpg"
        string_val: "C:/Users/rizwan.asif/Desktop/projects/SfMLearner/formatted_mars_data/11220.jpg"
        string_val: "C:/Users/rizwan.asif/Desktop/projects/SfMLearner/formatted_mars_data/10331.jpg"
        string_val: "C:/Users/rizwan.asif/Desktop/projects/SfMLearner/formatted_mars_data/11732.jpg"
        string_val: "C:/Users/rizwan.asif/Desktop/projects/SfMLearner/formatted_mars_data/11018.jpg"
        string_val: "C:/Users/rizwan.asif/Desktop/projects/SfMLearner/formatted_mars_data/11224.jpg"
        string_val: "C:/Users/rizwan.asif/Desktop/projects/SfMLearner/formatted_mars_data/12121.jpg"
        string_val: "C:/Users/rizwan.asif/Desktop/projects/SfMLearner/formatted_mars_data/10059.jpg"
        string_val: "C:/Users/rizwan.asif/Desktop/projects/SfMLearner/formatted_mars_data/10667.jpg"
        string_val: "C:/Users/rizwan.asif/Desktop/projects/SfMLearner/formatted_mars_data/12051.jpg"
        string_val: "C:/Users/rizwan.asif/Desktop/projects/SfMLearner/formatted_mars_data/11110.jpg"
        string_val: "C:/Users/rizwan.asif/Desktop/projects/SfMLearner/formatted_mars_data/11862.jpg"
        string_val: "C:/Users/rizwan.asif/Desktop/projects/SfMLearner/formatted_mars_data/10328.jpg"
        string_val: "C:/Users/rizwan.asif/Desktop/projects/SfMLearner/formatted_mars_data/10895.jpg"
        string_val: "C:/Users/rizwan.asif/Desktop/projects/SfMLearner/formatted_mars_data/11831.jpg"
        string_val: "C:/Users/rizwan.asif/Desktop/projects/SfMLearner/formatted_mars_data/1096.jpg"
        string_val: "C:/Users/rizwan.asif/Desktop/projects/SfMLearner/formatted_mars_data/10034.jpg"
        string_val: "C:/Users/rizwan.asif/Desktop/projects/SfMLearner/formatted_mars_data/12495.jpg"
        string_val: "C:/Users/rizwan.asif/Desktop/projects/SfMLearner/formatted_mars_data/10219.jpg"
        string_val: "C:/Users/rizwan.asif/Desktop/projects/SfMLearner/formatted_mars_data/1053.jpg"
        string_val: "C:/Users/rizwan.asif/Desktop/projects/SfMLearner/formatted_mars_data/12115.jpg"
        string_val: "C:/Users/rizwan.asif/Desktop/projects/SfMLearner/formatted_mars_data/11210.jpg"
        string_val: "C:/Users/rizwan.asif/Desktop/projects/SfMLearner/formatted_mars_data/11758.jpg"
        string_val: "C:/Users/rizwan.asif/Desktop/projects/SfMLearner/formatted_mars_data/10205.jpg"
        string_val: "C:/Users/rizwan.asif/Desktop/projects/SfMLearner/formatted_mars_data/10789.jpg"
        string_val: "C:/Users/rizwan.asif/Desktop/projects/SfMLearner/formatted_mars_data/11755.jpg"
        string_val: "C:/Users/rizwan.asif/Desktop/projects/SfMLearner/formatted_mars_data/10051.jpg"
        string_val: "C:/Users/rizwan.asif/Desktop/projects/SfMLearner/formatted_mars_data/11952.jpg"
        string_val: "C:/Users/rizwan.asif/Desktop/projects/SfMLearner/formatted_mars_data/10054.jpg"
        string_val: "C:/Users/rizwan.asif/Desktop/projects/SfMLearner/formatted_mars_data/10967.jpg"
        string_val: "C:/Users/rizwan.asif/Desktop/projects/SfMLearner/formatted_mars_data/11860.jpg"
        string_val: "C:/Users/rizwan.asif/Desktop/projects/SfMLearner/formatted_mars_data/12042.jpg"
        string_val: "C:/Users/rizwan.asif/Desktop/projects/SfMLearner/formatted_mars_data/10914.jpg"
        string_val: "C:/Users/rizwan.asif/Desktop/projects/SfMLearner/formatted_mars_data/1254.jpg"
        string_val: "C:/Users/rizwan.asif/Desktop/projects/SfMLearner/formatted_mars_data/10493.jpg"
        string_val: "C:/Users/rizwan.asif/Desktop/projects/SfMLearner/formatted_mars_data/10123.jpg"
        string_val: "C:/Users/rizwan.asif/Desktop/projects/SfMLearner/formatted_mars_data/1085.jpg"
        string_val: "C:/Users/rizwan.asif/Desktop/projects/SfMLearner/formatted_mars_data/12087.jpg"
        string_val: "C:/Users/rizwan.asif/Desktop/projects/SfMLearner/formatted_mars_data/10745.jpg"
        string_val: "C:/Users/rizwan.asif/Desktop/projects/SfMLearner/formatted_mars_data/12226.jpg"
        string_val: "C:/Users/rizwan.asif/Desktop/projects/SfMLearner/formatted_mars_data/12366.jpg"
        string_val: "C:/Users/rizwan.asif/Desktop/projects/SfMLearner/formatted_mars_data/11179.jpg"
        string_val: "C:/Users/rizwan.asif/Desktop/projects/SfMLearner/formatted_mars_data/10248.jpg"
        string_val: "C:/Users/rizwan.asif/Desktop/projects/SfMLearner/formatted_mars_data/10086.jpg"
        string_val: "C:/Users/rizwan.asif/Desktop/projects/SfMLearner/formatted_mars_data/10359.jpg"
        string_val: "C:/Users/rizwan.asif/Desktop/projects/SfMLearner/formatted_mars_data/10556.jpg"
        string_val: "C:/Users/rizwan.asif/Desktop/projects/SfMLearner/formatted_mars_data/12451.jpg"
        string_val: "C:/Users/rizwan.asif/Desktop/projects/SfMLearner/formatted_mars_data/11955.jpg"
        string_val: "C:/Users/rizwan.asif/Desktop/projects/SfMLearner/formatted_mars_data/11881.jpg"
        string_val: "C:/Users/rizwan.asif/Desktop/projects/SfMLearner/formatted_mars_data/12657.jpg"
        string_val: "C:/Users/rizwan.asif/Desktop/projects/SfMLearner/formatted_mars_data/12584.jpg"
        string_val: "C:/Users/rizwan.asif/Desktop/projects/SfMLearner/formatted_mars_data/12339.jpg"
        string_val: "C:/Users/rizwan.asif/Desktop/projects/SfMLearner/formatted_mars_data/10807.jpg"
        string_val: "C:/Users/rizwan.asif/Desktop/projects/SfMLearner/formatted_mars_data/12125.jpg"
        string_val: "C:/Users/rizwan.asif/Desktop/projects/SfMLearner/formatted_mars_data/10355.jpg"
        string_val: "C:/Users/rizwan.asif/Desktop/projects/SfMLearner/formatted_mars_data/11260.jpg"
        string_val: "C:/Users/rizwan.asif/Desktop/projects/SfMLearner/formatted_mars_data/10596.jpg"
        string_val: "C:/Users/rizwan.asif/Desktop/projects/SfMLearner/formatted_mars_data/12340.jpg"
        string_val: "C:/Users/rizwan.asif/Desktop/projects/SfMLearner/formatted_mars_data/11715.jpg"
        string_val: "C:/Users/rizwan.asif/Desktop/projects/SfMLearner/formatted_mars_data/12575.jpg"
        string_val: "C:/Users/rizwan.asif/Desktop/projects/SfMLearner/formatted_mars_data/11351.jpg"
        string_val: "C:/Users/rizwan.asif/Desktop/projects/SfMLearner/formatted_mars_data/12005.jpg"
        string_val: "C:/Users/rizwan.asif/Desktop/projects/SfMLearner/formatted_mars_data/11453.jpg"
        string_val: "C:/Users/rizwan.asif/Desktop/projects/SfMLearner/formatted_mars_data/1017.jpg"
        string_val: "C:/Users/rizwan.asif/Desktop/projects/SfMLearner/formatted_mars_data/10450.jpg"
        string_val: "C:/Users/rizwan.asif/Desktop/projects/SfMLearner/formatted_mars_data/12422.jpg"
        string_val: "C:/Users/rizwan.asif/Desktop/projects/SfMLearner/formatted_mars_data/10803.jpg"
        string_val: "C:/Users/rizwan.asif/Desktop/projects/SfMLearner/formatted_mars_data/10643.jpg"
        string_val: "C:/Users/rizwan.asif/Desktop/projects/SfMLearner/formatted_mars_data/10568.jpg"
        string_val: "C:/Users/rizwan.asif/Desktop/projects/SfMLearner/formatted_mars_data/10628.jpg"
        string_val: "C:/Users/rizwan.asif/Desktop/projects/SfMLearner/formatted_mars_data/11575.jpg"
        string_val: "C:/Users/rizwan.asif/Desktop/projects/SfMLearner/formatted_mars_data/10307.jpg"
        string_val: "C:/Users/rizwan.asif/Desktop/projects/SfMLearner/formatted_mars_data/12520.jpg"
        string_val: "C:/Users/rizwan.asif/Desktop/projects/SfMLearner/formatted_mars_data/11656.jpg"
        string_val: "C:/Users/rizwan.asif/Desktop/projects/SfMLearner/formatted_mars_data/12609.jpg"
        string_val: "C:/Users/rizwan.asif/Desktop/projects/SfMLearner/formatted_mars_data/10625.jpg"
        string_val: "C:/Users/rizwan.asif/Desktop/projects/SfMLearner/formatted_mars_data/10614.jpg"
        string_val: "C:/Users/rizwan.asif/Desktop/projects/SfMLearner/formatted_mars_data/10723.jpg"
        string_val: "C:/Users/rizwan.asif/Desktop/projects/SfMLearner/formatted_mars_data/10477.jpg"
        string_val: "C:/Users/rizwan.asif/Desktop/projects/SfMLearner/formatted_mars_data/10272.jpg"
        string_val: "C:/Users/rizwan.asif/Desktop/projects/SfMLearner/formatted_mars_data/10076.jpg"
        string_val: "C:/Users/rizwan.asif/Desktop/projects/SfMLearner/formatted_mars_data/10396.jpg"
        string_val: "C:/Users/rizwan.asif/Desktop/projects/SfMLearner/formatted_mars_data/10612.jpg"
        string_val: "C:/Users/rizwan.asif/Desktop/projects/SfMLearner/formatted_mars_data/10120.jpg"
        string_val: "C:/Users/rizwan.asif/Desktop/projects/SfMLearner/formatted_mars_data/12289.jpg"
        string_val: "C:/Users/rizwan.asif/Desktop/projects/SfMLearner/formatted_mars_data/12251.jpg"
        string_val: "C:/Users/rizwan.asif/Desktop/projects/SfMLearner/formatted_mars_data/10527.jpg"
        string_val: "C:/Users/rizwan.asif/Desktop/projects/SfMLearner/formatted_mars_data/123.jpg"
        string_val: "C:/Users/rizwan.asif/Desktop/projects/SfMLearner/formatted_mars_data/12039.jpg"
        string_val: "C:/Users/rizwan.asif/Desktop/projects/SfMLearner/formatted_mars_data/1250.jpg"
        string_val: "C:/Users/rizwan.asif/Desktop/projects/SfMLearner/formatted_mars_data/12325.jpg"
        string_val: "C:/Users/rizwan.asif/Desktop/projects/SfMLearner/formatted_mars_data/12064.jpg"
        string_val: "C:/Users/rizwan.asif/Desktop/projects/SfMLearner/formatted_mars_data/10398.jpg"
        string_val: "C:/Users/rizwan.asif/Desktop/projects/SfMLearner/formatted_mars_data/11276.jpg"
        string_val: "C:/Users/rizwan.asif/Desktop/projects/SfMLearner/formatted_mars_data/12138.jpg"
        string_val: "C:/Users/rizwan.asif/Desktop/projects/SfMLearner/formatted_mars_data/11081.jpg"
        string_val: "C:/Users/rizwan.asif/Desktop/projects/SfMLearner/formatted_mars_data/10526.jpg"
        string_val: "C:/Users/rizwan.asif/Desktop/projects/SfMLearner/formatted_mars_data/12288.jpg"
        string_val: "C:/Users/rizwan.asif/Desktop/projects/SfMLearner/formatted_mars_data/11176.jpg"
        string_val: "C:/Users/rizwan.asif/Desktop/projects/SfMLearner/formatted_mars_data/11187.jpg"
        string_val: "C:/Users/rizwan.asif/Desktop/projects/SfMLearner/formatted_mars_data/11654.jpg"
        string_val: "C:/Users/rizwan.asif/Desktop/projects/SfMLearner/formatted_mars_data/1202.jpg"
        string_val: "C:/Users/rizwan.asif/Desktop/projects/SfMLearner/formatted_mars_data/11448.jpg"
        string_val: "C:/Users/rizwan.asif/Desktop/projects/SfMLearner/formatted_mars_data/10754.jpg"
        string_val: "C:/Users/rizwan.asif/Desktop/projects/SfMLearner/formatted_mars_data/10341.jpg"
        string_val: "C:/Users/rizwan.asif/Desktop/projects/SfMLearner/formatted_mars_data/10448.jpg"
        string_val: "C:/Users/rizwan.asif/Desktop/projects/SfMLearner/formatted_mars_data/10002.jpg"
        string_val: "C:/Users/rizwan.asif/Desktop/projects/SfMLearner/formatted_mars_data/11855.jpg"
        string_val: "C:/Users/rizwan.asif/Desktop/projects/SfMLearner/formatted_mars_data/1185.jpg"
        string_val: "C:/Users/rizwan.asif/Desktop/projects/SfMLearner/formatted_mars_data/10915.jpg"
        string_val: "C:/Users/rizwan.asif/Desktop/projects/SfMLearner/formatted_mars_data/11751.jpg"
        string_val: "C:/Users/rizwan.asif/Desktop/projects/SfMLearner/formatted_mars_data/12096.jpg"
        string_val: "C:/Users/rizwan.asif/Desktop/projects/SfMLearner/formatted_mars_data/10936.jpg"
        string_val: "C:/Users/rizwan.asif/Desktop/projects/SfMLearner/formatted_mars_data/10032.jpg"
        string_val: "C:/Users/rizwan.asif/Desktop/projects/SfMLearner/formatted_mars_data/11911.jpg"
        string_val: "C:/Users/rizwan.asif/Desktop/projects/SfMLearner/formatted_mars_data/10821.jpg"
        string_val: "C:/Users/rizwan.asif/Desktop/projects/SfMLearner/formatted_mars_data/10325.jpg"
        string_val: "C:/Users/rizwan.asif/Desktop/projects/SfMLearner/formatted_mars_data/10254.jpg"
        string_val: "C:/Users/rizwan.asif/Desktop/projects/SfMLearner/formatted_mars_data/11975.jpg"
        string_val: "C:/Users/rizwan.asif/Desktop/projects/SfMLearner/formatted_mars_data/11275.jpg"
        string_val: "C:/Users/rizwan.asif/Desktop/projects/SfMLearner/formatted_mars_data/12617.jpg"
        string_val: "C:/Users/rizwan.asif/Desktop/projects/SfMLearner/formatted_mars_data/1099.jpg"
        string_val: "C:/Users/rizwan.asif/Desktop/projects/SfMLearner/formatted_mars_data/11560.jpg"
        string_val: "C:/Users/rizwan.asif/Desktop/projects/SfMLearner/formatted_mars_data/1010.jpg"
        string_val: "C:/Users/rizwan.asif/Desktop/projects/SfMLearner/formatted_mars_data/12201.jpg"
        string_val: "C:/Users/rizwan.asif/Desktop/projects/SfMLearner/formatted_mars_data/12643.jpg"
        string_val: "C:/Users/rizwan.asif/Desktop/projects/SfMLearner/formatted_mars_data/11226.jpg"
        string_val: "C:/Users/rizwan.asif/Desktop/projects/SfMLearner/formatted_mars_data/11847.jpg"
        string_val: "C:/Users/rizwan.asif/Desktop/projects/SfMLearner/formatted_mars_data/1149.jpg"
        string_val: "C:/Users/rizwan.asif/Desktop/projects/SfMLearner/formatted_mars_data/10160.jpg"
        string_val: "C:/Users/rizwan.asif/Desktop/projects/SfMLearner/formatted_mars_data/11078.jpg"
        string_val: "C:/Users/rizwan.asif/Desktop/projects/SfMLearner/formatted_mars_data/12383.jpg"
        string_val: "C:/Users/rizwan.asif/Desktop/projects/SfMLearner/formatted_mars_data/11034.jpg"
        string_val: "C:/Users/rizwan.asif/Desktop/projects/SfMLearner/formatted_mars_data/11280.jpg"
        string_val: "C:/Users/rizwan.asif/Desktop/projects/SfMLearner/formatted_mars_data/10239.jpg"
        string_val: "C:/Users/rizwan.asif/Desktop/projects/SfMLearner/formatted_mars_data/11519.jpg"
        string_val: "C:/Users/rizwan.asif/Desktop/projects/SfMLearner/formatted_mars_data/10255.jpg"
        string_val: "C:/Users/rizwan.asif/Desktop/projects/SfMLearner/formatted_mars_data/11808.jpg"
        string_val: "C:/Users/rizwan.asif/Desktop/projects/SfMLearner/formatted_mars_data/10562.jpg"
        string_val: "C:/Users/rizwan.asif/Desktop/projects/SfMLearner/formatted_mars_data/12464.jpg"
        string_val: "C:/Users/rizwan.asif/Desktop/projects/SfMLearner/formatted_mars_data/10812.jpg"
        string_val: "C:/Users/rizwan.asif/Desktop/projects/SfMLearner/formatted_mars_data/10083.jpg"
        string_val: "C:/Users/rizwan.asif/Desktop/projects/SfMLearner/formatted_mars_data/10980.jpg"
        string_val: "C:/Users/rizwan.asif/Desktop/projects/SfMLearner/formatted_mars_data/12652.jpg"
        string_val: "C:/Users/rizwan.asif/Desktop/projects/SfMLearner/formatted_mars_data/11667.jpg"
        string_val: "C:/Users/rizwan.asif/Desktop/projects/SfMLearner/formatted_mars_data/10717.jpg"
        string_val: "C:/Users/rizwan.asif/Desktop/projects/SfMLearner/formatted_mars_data/11622.jpg"
        string_val: "C:/Users/rizwan.asif/Desktop/projects/SfMLearner/formatted_mars_data/10098.jpg"
        string_val: "C:/Users/rizwan.asif/Desktop/projects/SfMLearner/formatted_mars_data/11559.jpg"
        string_val: "C:/Users/rizwan.asif/Desktop/projects/SfMLearner/formatted_mars_data/11528.jpg"
        string_val: "C:/Users/rizwan.asif/Desktop/projects/SfMLearner/formatted_mars_data/11120.jpg"
        string_val: "C:/Users/rizwan.asif/Desktop/projects/SfMLearner/formatted_mars_data/10302.jpg"
        string_val: "C:/Users/rizwan.asif/Desktop/projects/SfMLearner/formatted_mars_data/10810.jpg"
        string_val: "C:/Users/rizwan.asif/Desktop/projects/SfMLearner/formatted_mars_data/11642.jpg"
        string_val: "C:/Users/rizwan.asif/Desktop/projects/SfMLearner/formatted_mars_data/11730.jpg"
        string_val: "C:/Users/rizwan.asif/Desktop/projects/SfMLearner/formatted_mars_data/10268.jpg"
        string_val: "C:/Users/rizwan.asif/Desktop/projects/SfMLearner/formatted_mars_data/11790.jpg"
        string_val: "C:/Users/rizwan.asif/Desktop/projects/SfMLearner/formatted_mars_data/10673.jpg"
        string_val: "C:/Users/rizwan.asif/Desktop/projects/SfMLearner/formatted_mars_data/10616.jpg"
        string_val: "C:/Users/rizwan.asif/Desktop/projects/SfMLearner/formatted_mars_data/12483.jpg"
        string_val: "C:/Users/rizwan.asif/Desktop/projects/SfMLearner/formatted_mars_data/10883.jpg"
        string_val: "C:/Users/rizwan.asif/Desktop/projects/SfMLearner/formatted_mars_data/10762.jpg"
        string_val: "C:/Users/rizwan.asif/Desktop/projects/SfMLearner/formatted_mars_data/10211.jpg"
        string_val: "C:/Users/rizwan.asif/Desktop/projects/SfMLearner/formatted_mars_data/11802.jpg"
        string_val: "C:/Users/rizwan.asif/Desktop/projects/SfMLearner/formatted_mars_data/10278.jpg"
        string_val: "C:/Users/rizwan.asif/Desktop/projects/SfMLearner/formatted_mars_data/1214.jpg"
        string_val: "C:/Users/rizwan.asif/Desktop/projects/SfMLearner/formatted_mars_data/10836.jpg"
        string_val: "C:/Users/rizwan.asif/Desktop/projects/SfMLearner/formatted_mars_data/101.jpg"
        string_val: "C:/Users/rizwan.asif/Desktop/projects/SfMLearner/formatted_mars_data/11388.jpg"
        string_val: "C:/Users/rizwan.asif/Desktop/projects/SfMLearner/formatted_mars_data/11842.jpg"
        string_val: "C:/Users/rizwan.asif/Desktop/projects/SfMLearner/formatted_mars_data/10312.jpg"
        string_val: "C:/Users/rizwan.asif/Desktop/projects/SfMLearner/formatted_mars_data/12648.jpg"
        string_val: "C:/Users/rizwan.asif/Desktop/projects/SfMLearner/formatted_mars_data/10780.jpg"
        string_val: "C:/Users/rizwan.asif/Desktop/projects/SfMLearner/formatted_mars_data/10080.jpg"
        string_val: "C:/Users/rizwan.asif/Desktop/projects/SfMLearner/formatted_mars_data/1261.jpg"
        string_val: "C:/Users/rizwan.asif/Desktop/projects/SfMLearner/formatted_mars_data/11008.jpg"
        string_val: "C:/Users/rizwan.asif/Desktop/projects/SfMLearner/formatted_mars_data/12405.jpg"
        string_val: "C:/Users/rizwan.asif/Desktop/projects/SfMLearner/formatted_mars_data/11556.jpg"
        string_val: "C:/Users/rizwan.asif/Desktop/projects/SfMLearner/formatted_mars_data/10611.jpg"
        string_val: "C:/Users/rizwan.asif/Desktop/projects/SfMLearner/formatted_mars_data/1031.jpg"
        string_val: "C:/Users/rizwan.asif/Desktop/projects/SfMLearner/formatted_mars_data/11639.jpg"
        string_val: "C:/Users/rizwan.asif/Desktop/projects/SfMLearner/formatted_mars_data/12410.jpg"
        string_val: "C:/Users/rizwan.asif/Desktop/projects/SfMLearner/formatted_mars_data/1197.jpg"
        string_val: "C:/Users/rizwan.asif/Desktop/projects/SfMLearner/formatted_mars_data/11693.jpg"
        string_val: "C:/Users/rizwan.asif/Desktop/projects/SfMLearner/formatted_mars_data/12319.jpg"
        string_val: "C:/Users/rizwan.asif/Desktop/projects/SfMLearner/formatted_mars_data/10202.jpg"
        string_val: "C:/Users/rizwan.asif/Desktop/projects/SfMLearner/formatted_mars_data/11308.jpg"
        string_val: "C:/Users/rizwan.asif/Desktop/projects/SfMLearner/formatted_mars_data/12136.jpg"
        string_val: "C:/Users/rizwan.asif/Desktop/projects/SfMLearner/formatted_mars_data/10633.jpg"
        string_val: "C:/Users/rizwan.asif/Desktop/projects/SfMLearner/formatted_mars_data/11875.jpg"
        string_val: "C:/Users/rizwan.asif/Desktop/projects/SfMLearner/formatted_mars_data/1110.jpg"
        string_val: "C:/Users/rizwan.asif/Desktop/projects/SfMLearner/formatted_mars_data/10681.jpg"
        string_val: "C:/Users/rizwan.asif/Desktop/projects/SfMLearner/formatted_mars_data/11945.jpg"
        string_val: "C:/Users/rizwan.asif/Desktop/projects/SfMLearner/formatted_mars_data/10705.jpg"
        string_val: "C:/Users/rizwan.asif/Desktop/projects/SfMLearner/formatted_mars_data/10856.jpg"
        string_val: "C:/Users/rizwan.asif/Desktop/projects/SfMLearner/formatted_mars_data/12551.jpg"
        string_val: "C:/Users/rizwan.asif/Desktop/projects/SfMLearner/formatted_mars_data/10428.jpg"
        string_val: "C:/Users/rizwan.asif/Desktop/projects/SfMLearner/formatted_mars_data/10845.jpg"
        string_val: "C:/Users/rizwan.asif/Desktop/projects/SfMLearner/formatted_mars_data/12059.jpg"
        string_val: "C:/Users/rizwan.asif/Desktop/projects/SfMLearner/formatted_mars_data/12066.jpg"
        string_val: "C:/Users/rizwan.asif/Desktop/projects/SfMLearner/formatted_mars_data/12218.jpg"
        string_val: "C:/Users/rizwan.asif/Desktop/projects/SfMLearner/formatted_mars_data/10549.jpg"
        string_val: "C:/Users/rizwan.asif/Desktop/projects/SfMLearner/formatted_mars_data/11090.jpg"
        string_val: "C:/Users/rizwan.asif/Desktop/projects/SfMLearner/formatted_mars_data/11447.jpg"
        string_val: "C:/Users/rizwan.asif/Desktop/projects/SfMLearner/formatted_mars_data/10373.jpg"
        string_val: "C:/Users/rizwan.asif/Desktop/projects/SfMLearner/formatted_mars_data/11148.jpg"
        string_val: "C:/Users/rizwan.asif/Desktop/projects/SfMLearner/formatted_mars_data/10989.jpg"
        string_val: "C:/Users/rizwan.asif/Desktop/projects/SfMLearner/formatted_mars_data/11418.jpg"
        string_val: "C:/Users/rizwan.asif/Desktop/projects/SfMLearner/formatted_mars_data/10593.jpg"
        string_val: "C:/Users/rizwan.asif/Desktop/projects/SfMLearner/formatted_mars_data/11309.jpg"
        string_val: "C:/Users/rizwan.asif/Desktop/projects/SfMLearner/formatted_mars_data/10140.jpg"
        string_val: "C:/Users/rizwan.asif/Desktop/projects/SfMLearner/formatted_mars_data/11246.jpg"
        string_val: "C:/Users/rizwan.asif/Desktop/projects/SfMLearner/formatted_mars_data/1129.jpg"
        string_val: "C:/Users/rizwan.asif/Desktop/projects/SfMLearner/formatted_mars_data/11829.jpg"
        string_val: "C:/Users/rizwan.asif/Desktop/projects/SfMLearner/formatted_mars_data/10925.jpg"
        string_val: "C:/Users/rizwan.asif/Desktop/projects/SfMLearner/formatted_mars_data/10623.jpg"
        string_val: "C:/Users/rizwan.asif/Desktop/projects/SfMLearner/formatted_mars_data/11311.jpg"
        string_val: "C:/Users/rizwan.asif/Desktop/projects/SfMLearner/formatted_mars_data/12556.jpg"
        string_val: "C:/Users/rizwan.asif/Desktop/projects/SfMLearner/formatted_mars_data/12026.jpg"
        string_val: "C:/Users/rizwan.asif/Desktop/projects/SfMLearner/formatted_mars_data/11417.jpg"
        string_val: "C:/Users/rizwan.asif/Desktop/projects/SfMLearner/formatted_mars_data/11684.jpg"
        string_val: "C:/Users/rizwan.asif/Desktop/projects/SfMLearner/formatted_mars_data/10888.jpg"
        string_val: "C:/Users/rizwan.asif/Desktop/projects/SfMLearner/formatted_mars_data/1187.jpg"
        string_val: "C:/Users/rizwan.asif/Desktop/projects/SfMLearner/formatted_mars_data/11096.jpg"
        string_val: "C:/Users/rizwan.asif/Desktop/projects/SfMLearner/formatted_mars_data/12503.jpg"
        string_val: "C:/Users/rizwan.asif/Desktop/projects/SfMLearner/formatted_mars_data/11325.jpg"
        string_val: "C:/Users/rizwan.asif/Desktop/projects/SfMLearner/formatted_mars_data/12155.jpg"
        string_val: "C:/Users/rizwan.asif/Desktop/projects/SfMLearner/formatted_mars_data/10766.jpg"
        string_val: "C:/Users/rizwan.asif/Desktop/projects/SfMLearner/formatted_mars_data/10472.jpg"
        string_val: "C:/Users/rizwan.asif/Desktop/projects/SfMLearner/formatted_mars_data/10271.jpg"
        string_val: "C:/Users/rizwan.asif/Desktop/projects/SfMLearner/formatted_mars_data/10105.jpg"
        string_val: "C:/Users/rizwan.asif/Desktop/projects/SfMLearner/formatted_mars_data/10846.jpg"
        string_val: "C:/Users/rizwan.asif/Desktop/projects/SfMLearner/formatted_mars_data/10569.jpg"
        string_val: "C:/Users/rizwan.asif/Desktop/projects/SfMLearner/formatted_mars_data/11951.jpg"
        string_val: "C:/Users/rizwan.asif/Desktop/projects/SfMLearner/formatted_mars_data/11763.jpg"
        string_val: "C:/Users/rizwan.asif/Desktop/projects/SfMLearner/formatted_mars_data/12419.jpg"
        string_val: "C:/Users/rizwan.asif/Desktop/projects/SfMLearner/formatted_mars_data/11347.jpg"
        string_val: "C:/Users/rizwan.asif/Desktop/projects/SfMLearner/formatted_mars_data/11398.jpg"
        string_val: "C:/Users/rizwan.asif/Desktop/projects/SfMLearner/formatted_mars_data/10382.jpg"
        string_val: "C:/Users/rizwan.asif/Desktop/projects/SfMLearner/formatted_mars_data/11420.jpg"
        string_val: "C:/Users/rizwan.asif/Desktop/projects/SfMLearner/formatted_mars_data/11803.jpg"
        string_val: "C:/Users/rizwan.asif/Desktop/projects/SfMLearner/formatted_mars_data/12214.jpg"
        string_val: "C:/Users/rizwan.asif/Desktop/projects/SfMLearner/formatted_mars_data/11898.jpg"
        string_val: "C:/Users/rizwan.asif/Desktop/projects/SfMLearner/formatted_mars_data/10361.jpg"
        string_val: "C:/Users/rizwan.asif/Desktop/projects/SfMLearner/formatted_mars_data/12101.jpg"
        string_val: "C:/Users/rizwan.asif/Desktop/projects/SfMLearner/formatted_mars_data/11466.jpg"
        string_val: "C:/Users/rizwan.asif/Desktop/projects/SfMLearner/formatted_mars_data/10947.jpg"
        string_val: "C:/Users/rizwan.asif/Desktop/projects/SfMLearner/formatted_mars_data/12631.jpg"
        string_val: "C:/Users/rizwan.asif/Desktop/projects/SfMLearner/formatted_mars_data/12627.jpg"
        string_val: "C:/Users/rizwan.asif/Desktop/projects/SfMLearner/formatted_mars_data/12638.jpg"
        string_val: "C:/Users/rizwan.asif/Desktop/projects/SfMLearner/formatted_mars_data/12070.jpg"
        string_val: "C:/Users/rizwan.asif/Desktop/projects/SfMLearner/formatted_mars_data/10458.jpg"
        string_val: "C:/Users/rizwan.asif/Desktop/projects/SfMLearner/formatted_mars_data/11812.jpg"
        string_val: "C:/Users/rizwan.asif/Desktop/projects/SfMLearner/formatted_mars_data/11404.jpg"
        string_val: "C:/Users/rizwan.asif/Desktop/projects/SfMLearner/formatted_mars_data/11762.jpg"
        string_val: "C:/Users/rizwan.asif/Desktop/projects/SfMLearner/formatted_mars_data/12247.jpg"
        string_val: "C:/Users/rizwan.asif/Desktop/projects/SfMLearner/formatted_mars_data/12349.jpg"
        string_val: "C:/Users/rizwan.asif/Desktop/projects/SfMLearner/formatted_mars_data/10446.jpg"
        string_val: "C:/Users/rizwan.asif/Desktop/projects/SfMLearner/formatted_mars_data/1222.jpg"
        string_val: "C:/Users/rizwan.asif/Desktop/projects/SfMLearner/formatted_mars_data/11690.jpg"
        string_val: "C:/Users/rizwan.asif/Desktop/projects/SfMLearner/formatted_mars_data/10866.jpg"
        string_val: "C:/Users/rizwan.asif/Desktop/projects/SfMLearner/formatted_mars_data/11317.jpg"
        string_val: "C:/Users/rizwan.asif/Desktop/projects/SfMLearner/formatted_mars_data/11818.jpg"
        string_val: "C:/Users/rizwan.asif/Desktop/projects/SfMLearner/formatted_mars_data/11798.jpg"
        string_val: "C:/Users/rizwan.asif/Desktop/projects/SfMLearner/formatted_mars_data/11549.jpg"
        string_val: "C:/Users/rizwan.asif/Desktop/projects/SfMLearner/formatted_mars_data/10378.jpg"
        string_val: "C:/Users/rizwan.asif/Desktop/projects/SfMLearner/formatted_mars_data/12024.jpg"
        string_val: "C:/Users/rizwan.asif/Desktop/projects/SfMLearner/formatted_mars_data/12186.jpg"
        string_val: "C:/Users/rizwan.asif/Desktop/projects/SfMLearner/formatted_mars_data/11238.jpg"
        string_val: "C:/Users/rizwan.asif/Desktop/projects/SfMLearner/formatted_mars_data/10298.jpg"
        string_val: "C:/Users/rizwan.asif/Desktop/projects/SfMLearner/formatted_mars_data/10455.jpg"
        string_val: "C:/Users/rizwan.asif/Desktop/projects/SfMLearner/formatted_mars_data/10768.jpg"
        string_val: "C:/Users/rizwan.asif/Desktop/projects/SfMLearner/formatted_mars_data/11659.jpg"
        string_val: "C:/Users/rizwan.asif/Desktop/projects/SfMLearner/formatted_mars_data/11848.jpg"
        string_val: "C:/Users/rizwan.asif/Desktop/projects/SfMLearner/formatted_mars_data/12280.jpg"
        string_val: "C:/Users/rizwan.asif/Desktop/projects/SfMLearner/formatted_mars_data/10609.jpg"
        string_val: "C:/Users/rizwan.asif/Desktop/projects/SfMLearner/formatted_mars_data/11628.jpg"
        string_val: "C:/Users/rizwan.asif/Desktop/projects/SfMLearner/formatted_mars_data/12427.jpg"
        string_val: "C:/Users/rizwan.asif/Desktop/projects/SfMLearner/formatted_mars_data/10069.jpg"
        string_val: "C:/Users/rizwan.asif/Desktop/projects/SfMLearner/formatted_mars_data/10090.jpg"
        string_val: "C:/Users/rizwan.asif/Desktop/projects/SfMLearner/formatted_mars_data/10399.jpg"
        string_val: "C:/Users/rizwan.asif/Desktop/projects/SfMLearner/formatted_mars_data/12376.jpg"
        string_val: "C:/Users/rizwan.asif/Desktop/projects/SfMLearner/formatted_mars_data/12337.jpg"
        string_val: "C:/Users/rizwan.asif/Desktop/projects/SfMLearner/formatted_mars_data/10868.jpg"
        string_val: "C:/Users/rizwan.asif/Desktop/projects/SfMLearner/formatted_mars_data/11151.jpg"
        string_val: "C:/Users/rizwan.asif/Desktop/projects/SfMLearner/formatted_mars_data/11991.jpg"
        string_val: "C:/Users/rizwan.asif/Desktop/projects/SfMLearner/formatted_mars_data/10411.jpg"
        string_val: "C:/Users/rizwan.asif/Desktop/projects/SfMLearner/formatted_mars_data/11961.jpg"
        string_val: "C:/Users/rizwan.asif/Desktop/projects/SfMLearner/formatted_mars_data/12528.jpg"
        string_val: "C:/Users/rizwan.asif/Desktop/projects/SfMLearner/formatted_mars_data/11867.jpg"
        string_val: "C:/Users/rizwan.asif/Desktop/projects/SfMLearner/formatted_mars_data/11658.jpg"
        string_val: "C:/Users/rizwan.asif/Desktop/projects/SfMLearner/formatted_mars_data/12118.jpg"
        string_val: "C:/Users/rizwan.asif/Desktop/projects/SfMLearner/formatted_mars_data/10683.jpg"
        string_val: "C:/Users/rizwan.asif/Desktop/projects/SfMLearner/formatted_mars_data/12621.jpg"
        string_val: "C:/Users/rizwan.asif/Desktop/projects/SfMLearner/formatted_mars_data/11563.jpg"
        string_val: "C:/Users/rizwan.asif/Desktop/projects/SfMLearner/formatted_mars_data/11544.jpg"
        string_val: "C:/Users/rizwan.asif/Desktop/projects/SfMLearner/formatted_mars_data/11543.jpg"
        string_val: "C:/Users/rizwan.asif/Desktop/projects/SfMLearner/formatted_mars_data/10055.jpg"
        string_val: "C:/Users/rizwan.asif/Desktop/projects/SfMLearner/formatted_mars_data/1246.jpg"
        string_val: "C:/Users/rizwan.asif/Desktop/projects/SfMLearner/formatted_mars_data/10449.jpg"
        string_val: "C:/Users/rizwan.asif/Desktop/projects/SfMLearner/formatted_mars_data/11367.jpg"
        string_val: "C:/Users/rizwan.asif/Desktop/projects/SfMLearner/formatted_mars_data/11822.jpg"
        string_val: "C:/Users/rizwan.asif/Desktop/projects/SfMLearner/formatted_mars_data/10660.jpg"
        string_val: "C:/Users/rizwan.asif/Desktop/projects/SfMLearner/formatted_mars_data/10521.jpg"
        string_val: "C:/Users/rizwan.asif/Desktop/projects/SfMLearner/formatted_mars_data/10315.jpg"
        string_val: "C:/Users/rizwan.asif/Desktop/projects/SfMLearner/formatted_mars_data/12449.jpg"
        string_val: "C:/Users/rizwan.asif/Desktop/projects/SfMLearner/formatted_mars_data/10880.jpg"
        string_val: "C:/Users/rizwan.asif/Desktop/projects/SfMLearner/formatted_mars_data/12437.jpg"
        string_val: "C:/Users/rizwan.asif/Desktop/projects/SfMLearner/formatted_mars_data/12529.jpg"
        string_val: "C:/Users/rizwan.asif/Desktop/projects/SfMLearner/formatted_mars_data/11285.jpg"
        string_val: "C:/Users/rizwan.asif/Desktop/projects/SfMLearner/formatted_mars_data/12527.jpg"
        string_val: "C:/Users/rizwan.asif/Desktop/projects/SfMLearner/formatted_mars_data/1066.jpg"
        string_val: "C:/Users/rizwan.asif/Desktop/projects/SfMLearner/formatted_mars_data/10017.jpg"
        string_val: "C:/Users/rizwan.asif/Desktop/projects/SfMLearner/formatted_mars_data/12242.jpg"
        string_val: "C:/Users/rizwan.asif/Desktop/projects/SfMLearner/formatted_mars_data/1148.jpg"
        string_val: "C:/Users/rizwan.asif/Desktop/projects/SfMLearner/formatted_mars_data/1190.jpg"
        string_val: "C:/Users/rizwan.asif/Desktop/projects/SfMLearner/formatted_mars_data/11105.jpg"
        string_val: "C:/Users/rizwan.asif/Desktop/projects/SfMLearner/formatted_mars_data/11138.jpg"
        string_val: "C:/Users/rizwan.asif/Desktop/projects/SfMLearner/formatted_mars_data/10199.jpg"
        string_val: "C:/Users/rizwan.asif/Desktop/projects/SfMLearner/formatted_mars_data/10591.jpg"
        string_val: "C:/Users/rizwan.asif/Desktop/projects/SfMLearner/formatted_mars_data/10539.jpg"
        string_val: "C:/Users/rizwan.asif/Desktop/projects/SfMLearner/formatted_mars_data/12475.jpg"
        string_val: "C:/Users/rizwan.asif/Desktop/projects/SfMLearner/formatted_mars_data/11990.jpg"
        string_val: "C:/Users/rizwan.asif/Desktop/projects/SfMLearner/formatted_mars_data/11344.jpg"
        string_val: "C:/Users/rizwan.asif/Desktop/projects/SfMLearner/formatted_mars_data/10792.jpg"
        string_val: "C:/Users/rizwan.asif/Desktop/projects/SfMLearner/formatted_mars_data/11132.jpg"
        string_val: "C:/Users/rizwan.asif/Desktop/projects/SfMLearner/formatted_mars_data/1061.jpg"
        string_val: "C:/Users/rizwan.asif/Desktop/projects/SfMLearner/formatted_mars_data/1118.jpg"
        string_val: "C:/Users/rizwan.asif/Desktop/projects/SfMLearner/formatted_mars_data/11487.jpg"
        string_val: "C:/Users/rizwan.asif/Desktop/projects/SfMLearner/formatted_mars_data/1221.jpg"
        string_val: "C:/Users/rizwan.asif/Desktop/projects/SfMLearner/formatted_mars_data/10464.jpg"
        string_val: "C:/Users/rizwan.asif/Desktop/projects/SfMLearner/formatted_mars_data/10554.jpg"
        string_val: "C:/Users/rizwan.asif/Desktop/projects/SfMLearner/formatted_mars_data/11859.jpg"
        string_val: "C:/Users/rizwan.asif/Desktop/projects/SfMLearner/formatted_mars_data/11529.jpg"
        string_val: "C:/Users/rizwan.asif/Desktop/projects/SfMLearner/formatted_mars_data/1068.jpg"
        string_val: "C:/Users/rizwan.asif/Desktop/projects/SfMLearner/formatted_mars_data/10379.jpg"
        string_val: "C:/Users/rizwan.asif/Desktop/projects/SfMLearner/formatted_mars_data/11749.jpg"
        string_val: "C:/Users/rizwan.asif/Desktop/projects/SfMLearner/formatted_mars_data/10508.jpg"
        string_val: "C:/Users/rizwan.asif/Desktop/projects/SfMLearner/formatted_mars_data/10551.jpg"
        string_val: "C:/Users/rizwan.asif/Desktop/projects/SfMLearner/formatted_mars_data/11360.jpg"
        string_val: "C:/Users/rizwan.asif/Desktop/projects/SfMLearner/formatted_mars_data/10860.jpg"
        string_val: "C:/Users/rizwan.asif/Desktop/projects/SfMLearner/formatted_mars_data/12139.jpg"
        string_val: "C:/Users/rizwan.asif/Desktop/projects/SfMLearner/formatted_mars_data/12393.jpg"
        string_val: "C:/Users/rizwan.asif/Desktop/projects/SfMLearner/formatted_mars_data/11225.jpg"
        string_val: "C:/Users/rizwan.asif/Desktop/projects/SfMLearner/formatted_mars_data/11970.jpg"
        string_val: "C:/Users/rizwan.asif/Desktop/projects/SfMLearner/formatted_mars_data/1124.jpg"
        string_val: "C:/Users/rizwan.asif/Desktop/projects/SfMLearner/formatted_mars_data/11026.jpg"
        string_val: "C:/Users/rizwan.asif/Desktop/projects/SfMLearner/formatted_mars_data/11821.jpg"
        string_val: "C:/Users/rizwan.asif/Desktop/projects/SfMLearner/formatted_mars_data/11768.jpg"
        string_val: "C:/Users/rizwan.asif/Desktop/projects/SfMLearner/formatted_mars_data/11160.jpg"
        string_val: "C:/Users/rizwan.asif/Desktop/projects/SfMLearner/formatted_mars_data/11428.jpg"
        string_val: "C:/Users/rizwan.asif/Desktop/projects/SfMLearner/formatted_mars_data/11304.jpg"
        string_val: "C:/Users/rizwan.asif/Desktop/projects/SfMLearner/formatted_mars_data/10429.jpg"
        string_val: "C:/Users/rizwan.asif/Desktop/projects/SfMLearner/formatted_mars_data/11686.jpg"
        string_val: "C:/Users/rizwan.asif/Desktop/projects/SfMLearner/formatted_mars_data/11093.jpg"
        string_val: "C:/Users/rizwan.asif/Desktop/projects/SfMLearner/formatted_mars_data/11565.jpg"
        string_val: "C:/Users/rizwan.asif/Desktop/projects/SfMLearner/formatted_mars_data/10933.jpg"
        string_val: "C:/Users/rizwan.asif/Desktop/projects/SfMLearner/formatted_mars_data/11433.jpg"
        string_val: "C:/Users/rizwan.asif/Desktop/projects/SfMLearner/formatted_mars_data/1057.jpg"
        string_val: "C:/Users/rizwan.asif/Desktop/projects/SfMLearner/formatted_mars_data/11714.jpg"
        string_val: "C:/Users/rizwan.asif/Desktop/projects/SfMLearner/formatted_mars_data/10588.jpg"
        string_val: "C:/Users/rizwan.asif/Desktop/projects/SfMLearner/formatted_mars_data/11168.jpg"
        string_val: "C:/Users/rizwan.asif/Desktop/projects/SfMLearner/formatted_mars_data/11805.jpg"
        string_val: "C:/Users/rizwan.asif/Desktop/projects/SfMLearner/formatted_mars_data/10445.jpg"
        string_val: "C:/Users/rizwan.asif/Desktop/projects/SfMLearner/formatted_mars_data/11981.jpg"
        string_val: "C:/Users/rizwan.asif/Desktop/projects/SfMLearner/formatted_mars_data/11968.jpg"
        string_val: "C:/Users/rizwan.asif/Desktop/projects/SfMLearner/formatted_mars_data/11380.jpg"
        string_val: "C:/Users/rizwan.asif/Desktop/projects/SfMLearner/formatted_mars_data/11816.jpg"
        string_val: "C:/Users/rizwan.asif/Desktop/projects/SfMLearner/formatted_mars_data/11915.jpg"
        string_val: "C:/Users/rizwan.asif/Desktop/projects/SfMLearner/formatted_mars_data/10203.jpg"
        string_val: "C:/Users/rizwan.asif/Desktop/projects/SfMLearner/formatted_mars_data/12228.jpg"
        string_val: "C:/Users/rizwan.asif/Desktop/projects/SfMLearner/formatted_mars_data/10484.jpg"
        string_val: "C:/Users/rizwan.asif/Desktop/projects/SfMLearner/formatted_mars_data/10284.jpg"
        string_val: "C:/Users/rizwan.asif/Desktop/projects/SfMLearner/formatted_mars_data/10409.jpg"
        string_val: "C:/Users/rizwan.asif/Desktop/projects/SfMLearner/formatted_mars_data/11217.jpg"
        string_val: "C:/Users/rizwan.asif/Desktop/projects/SfMLearner/formatted_mars_data/10146.jpg"
        string_val: "C:/Users/rizwan.asif/Desktop/projects/SfMLearner/formatted_mars_data/10528.jpg"
        string_val: "C:/Users/rizwan.asif/Desktop/projects/SfMLearner/formatted_mars_data/12396.jpg"
        string_val: "C:/Users/rizwan.asif/Desktop/projects/SfMLearner/formatted_mars_data/11932.jpg"
        string_val: "C:/Users/rizwan.asif/Desktop/projects/SfMLearner/formatted_mars_data/11259.jpg"
        string_val: "C:/Users/rizwan.asif/Desktop/projects/SfMLearner/formatted_mars_data/10651.jpg"
        string_val: "C:/Users/rizwan.asif/Desktop/projects/SfMLearner/formatted_mars_data/1196.jpg"
        string_val: "C:/Users/rizwan.asif/Desktop/projects/SfMLearner/formatted_mars_data/12154.jpg"
        string_val: "C:/Users/rizwan.asif/Desktop/projects/SfMLearner/formatted_mars_data/10217.jpg"
        string_val: "C:/Users/rizwan.asif/Desktop/projects/SfMLearner/formatted_mars_data/12276.jpg"
        string_val: "C:/Users/rizwan.asif/Desktop/projects/SfMLearner/formatted_mars_data/10178.jpg"
        string_val: "C:/Users/rizwan.asif/Desktop/projects/SfMLearner/formatted_mars_data/1248.jpg"
        string_val: "C:/Users/rizwan.asif/Desktop/projects/SfMLearner/formatted_mars_data/11321.jpg"
        string_val: "C:/Users/rizwan.asif/Desktop/projects/SfMLearner/formatted_mars_data/10121.jpg"
        string_val: "C:/Users/rizwan.asif/Desktop/projects/SfMLearner/formatted_mars_data/10441.jpg"
        string_val: "C:/Users/rizwan.asif/Desktop/projects/SfMLearner/formatted_mars_data/10793.jpg"
        string_val: "C:/Users/rizwan.asif/Desktop/projects/SfMLearner/formatted_mars_data/10731.jpg"
        string_val: "C:/Users/rizwan.asif/Desktop/projects/SfMLearner/formatted_mars_data/1262.jpg"
        string_val: "C:/Users/rizwan.asif/Desktop/projects/SfMLearner/formatted_mars_data/1211.jpg"
        string_val: "C:/Users/rizwan.asif/Desktop/projects/SfMLearner/formatted_mars_data/11058.jpg"
        string_val: "C:/Users/rizwan.asif/Desktop/projects/SfMLearner/formatted_mars_data/12270.jpg"
        string_val: "C:/Users/rizwan.asif/Desktop/projects/SfMLearner/formatted_mars_data/12477.jpg"
        string_val: "C:/Users/rizwan.asif/Desktop/projects/SfMLearner/formatted_mars_data/1013.jpg"
        string_val: "C:/Users/rizwan.asif/Desktop/projects/SfMLearner/formatted_mars_data/10646.jpg"
        string_val: "C:/Users/rizwan.asif/Desktop/projects/SfMLearner/formatted_mars_data/11440.jpg"
        string_val: "C:/Users/rizwan.asif/Desktop/projects/SfMLearner/formatted_mars_data/11373.jpg"
        string_val: "C:/Users/rizwan.asif/Desktop/projects/SfMLearner/formatted_mars_data/12120.jpg"
        string_val: "C:/Users/rizwan.asif/Desktop/projects/SfMLearner/formatted_mars_data/10642.jpg"
        string_val: "C:/Users/rizwan.asif/Desktop/projects/SfMLearner/formatted_mars_data/11426.jpg"
        string_val: "C:/Users/rizwan.asif/Desktop/projects/SfMLearner/formatted_mars_data/10253.jpg"
        string_val: "C:/Users/rizwan.asif/Desktop/projects/SfMLearner/formatted_mars_data/11215.jpg"
        string_val: "C:/Users/rizwan.asif/Desktop/projects/SfMLearner/formatted_mars_data/11421.jpg"
        string_val: "C:/Users/rizwan.asif/Desktop/projects/SfMLearner/formatted_mars_data/10794.jpg"
        string_val: "C:/Users/rizwan.asif/Desktop/projects/SfMLearner/formatted_mars_data/1179.jpg"
        string_val: "C:/Users/rizwan.asif/Desktop/projects/SfMLearner/formatted_mars_data/1236.jpg"
        string_val: "C:/Users/rizwan.asif/Desktop/projects/SfMLearner/formatted_mars_data/12597.jpg"
        string_val: "C:/Users/rizwan.asif/Desktop/projects/SfMLearner/formatted_mars_data/12163.jpg"
        string_val: "C:/Users/rizwan.asif/Desktop/projects/SfMLearner/formatted_mars_data/1209.jpg"
        string_val: "C:/Users/rizwan.asif/Desktop/projects/SfMLearner/formatted_mars_data/10677.jpg"
        string_val: "C:/Users/rizwan.asif/Desktop/projects/SfMLearner/formatted_mars_data/10442.jpg"
        string_val: "C:/Users/rizwan.asif/Desktop/projects/SfMLearner/formatted_mars_data/10827.jpg"
        string_val: "C:/Users/rizwan.asif/Desktop/projects/SfMLearner/formatted_mars_data/12430.jpg"
        string_val: "C:/Users/rizwan.asif/Desktop/projects/SfMLearner/formatted_mars_data/12619.jpg"
        string_val: "C:/Users/rizwan.asif/Desktop/projects/SfMLearner/formatted_mars_data/12074.jpg"
        string_val: "C:/Users/rizwan.asif/Desktop/projects/SfMLearner/formatted_mars_data/12452.jpg"
        string_val: "C:/Users/rizwan.asif/Desktop/projects/SfMLearner/formatted_mars_data/12645.jpg"
        string_val: "C:/Users/rizwan.asif/Desktop/projects/SfMLearner/formatted_mars_data/11048.jpg"
        string_val: "C:/Users/rizwan.asif/Desktop/projects/SfMLearner/formatted_mars_data/10878.jpg"
        string_val: "C:/Users/rizwan.asif/Desktop/projects/SfMLearner/formatted_mars_data/11524.jpg"
        string_val: "C:/Users/rizwan.asif/Desktop/projects/SfMLearner/formatted_mars_data/10802.jpg"
        string_val: "C:/Users/rizwan.asif/Desktop/projects/SfMLearner/formatted_mars_data/10817.jpg"
        string_val: "C:/Users/rizwan.asif/Desktop/projects/SfMLearner/formatted_mars_data/11117.jpg"
        string_val: "C:/Users/rizwan.asif/Desktop/projects/SfMLearner/formatted_mars_data/12385.jpg"
        string_val: "C:/Users/rizwan.asif/Desktop/projects/SfMLearner/formatted_mars_data/10419.jpg"
        string_val: "C:/Users/rizwan.asif/Desktop/projects/SfMLearner/formatted_mars_data/10567.jpg"
        string_val: "C:/Users/rizwan.asif/Desktop/projects/SfMLearner/formatted_mars_data/12408.jpg"
        string_val: "C:/Users/rizwan.asif/Desktop/projects/SfMLearner/formatted_mars_data/11700.jpg"
        string_val: "C:/Users/rizwan.asif/Desktop/projects/SfMLearner/formatted_mars_data/1255.jpg"
        string_val: "C:/Users/rizwan.asif/Desktop/projects/SfMLearner/formatted_mars_data/12384.jpg"
        string_val: "C:/Users/rizwan.asif/Desktop/projects/SfMLearner/formatted_mars_data/11234.jpg"
        string_val: "C:/Users/rizwan.asif/Desktop/projects/SfMLearner/formatted_mars_data/10964.jpg"
        string_val: "C:/Users/rizwan.asif/Desktop/projects/SfMLearner/formatted_mars_data/11874.jpg"
        string_val: "C:/Users/rizwan.asif/Desktop/projects/SfMLearner/formatted_mars_data/11150.jpg"
        string_val: "C:/Users/rizwan.asif/Desktop/projects/SfMLearner/formatted_mars_data/1045.jpg"
        string_val: "C:/Users/rizwan.asif/Desktop/projects/SfMLearner/formatted_mars_data/12167.jpg"
        string_val: "C:/Users/rizwan.asif/Desktop/projects/SfMLearner/formatted_mars_data/11319.jpg"
        string_val: "C:/Users/rizwan.asif/Desktop/projects/SfMLearner/formatted_mars_data/12102.jpg"
        string_val: "C:/Users/rizwan.asif/Desktop/projects/SfMLearner/formatted_mars_data/10439.jpg"
        string_val: "C:/Users/rizwan.asif/Desktop/projects/SfMLearner/formatted_mars_data/11195.jpg"
        string_val: "C:/Users/rizwan.asif/Desktop/projects/SfMLearner/formatted_mars_data/11873.jpg"
        string_val: "C:/Users/rizwan.asif/Desktop/projects/SfMLearner/formatted_mars_data/11578.jpg"
        string_val: "C:/Users/rizwan.asif/Desktop/projects/SfMLearner/formatted_mars_data/10190.jpg"
        string_val: "C:/Users/rizwan.asif/Desktop/projects/SfMLearner/formatted_mars_data/10636.jpg"
        string_val: "C:/Users/rizwan.asif/Desktop/projects/SfMLearner/formatted_mars_data/1024.jpg"
        string_val: "C:/Users/rizwan.asif/Desktop/projects/SfMLearner/formatted_mars_data/11273.jpg"
        string_val: "C:/Users/rizwan.asif/Desktop/projects/SfMLearner/formatted_mars_data/11036.jpg"
        string_val: "C:/Users/rizwan.asif/Desktop/projects/SfMLearner/formatted_mars_data/10347.jpg"
        string_val: "C:/Users/rizwan.asif/Desktop/projects/SfMLearner/formatted_mars_data/11788.jpg"
        string_val: "C:/Users/rizwan.asif/Desktop/projects/SfMLearner/formatted_mars_data/10502.jpg"
        string_val: "C:/Users/rizwan.asif/Desktop/projects/SfMLearner/formatted_mars_data/12328.jpg"
        string_val: "C:/Users/rizwan.asif/Desktop/projects/SfMLearner/formatted_mars_data/10934.jpg"
        string_val: "C:/Users/rizwan.asif/Desktop/projects/SfMLearner/formatted_mars_data/12071.jpg"
        string_val: "C:/Users/rizwan.asif/Desktop/projects/SfMLearner/formatted_mars_data/10571.jpg"
        string_val: "C:/Users/rizwan.asif/Desktop/projects/SfMLearner/formatted_mars_data/12137.jpg"
        string_val: "C:/Users/rizwan.asif/Desktop/projects/SfMLearner/formatted_mars_data/12544.jpg"
        string_val: "C:/Users/rizwan.asif/Desktop/projects/SfMLearner/formatted_mars_data/11397.jpg"
        string_val: "C:/Users/rizwan.asif/Desktop/projects/SfMLearner/formatted_mars_data/1224.jpg"
        string_val: "C:/Users/rizwan.asif/Desktop/projects/SfMLearner/formatted_mars_data/10259.jpg"
        string_val: "C:/Users/rizwan.asif/Desktop/projects/SfMLearner/formatted_mars_data/11636.jpg"
        string_val: "C:/Users/rizwan.asif/Desktop/projects/SfMLearner/formatted_mars_data/10333.jpg"
        string_val: "C:/Users/rizwan.asif/Desktop/projects/SfMLearner/formatted_mars_data/1092.jpg"
        string_val: "C:/Users/rizwan.asif/Desktop/projects/SfMLearner/formatted_mars_data/12079.jpg"
        string_val: "C:/Users/rizwan.asif/Desktop/projects/SfMLearner/formatted_mars_data/12151.jpg"
        string_val: "C:/Users/rizwan.asif/Desktop/projects/SfMLearner/formatted_mars_data/12651.jpg"
        string_val: "C:/Users/rizwan.asif/Desktop/projects/SfMLearner/formatted_mars_data/10234.jpg"
        string_val: "C:/Users/rizwan.asif/Desktop/projects/SfMLearner/formatted_mars_data/11262.jpg"
        string_val: "C:/Users/rizwan.asif/Desktop/projects/SfMLearner/formatted_mars_data/10764.jpg"
        string_val: "C:/Users/rizwan.asif/Desktop/projects/SfMLearner/formatted_mars_data/11743.jpg"
        string_val: "C:/Users/rizwan.asif/Desktop/projects/SfMLearner/formatted_mars_data/11614.jpg"
        string_val: "C:/Users/rizwan.asif/Desktop/projects/SfMLearner/formatted_mars_data/11967.jpg"
        string_val: "C:/Users/rizwan.asif/Desktop/projects/SfMLearner/formatted_mars_data/12480.jpg"
        string_val: "C:/Users/rizwan.asif/Desktop/projects/SfMLearner/formatted_mars_data/11408.jpg"
        string_val: "C:/Users/rizwan.asif/Desktop/projects/SfMLearner/formatted_mars_data/10106.jpg"
        string_val: "C:/Users/rizwan.asif/Desktop/projects/SfMLearner/formatted_mars_data/11080.jpg"
        string_val: "C:/Users/rizwan.asif/Desktop/projects/SfMLearner/formatted_mars_data/12610.jpg"
        string_val: "C:/Users/rizwan.asif/Desktop/projects/SfMLearner/formatted_mars_data/11305.jpg"
        string_val: "C:/Users/rizwan.asif/Desktop/projects/SfMLearner/formatted_mars_data/12493.jpg"
        string_val: "C:/Users/rizwan.asif/Desktop/projects/SfMLearner/formatted_mars_data/10250.jpg"
        string_val: "C:/Users/rizwan.asif/Desktop/projects/SfMLearner/formatted_mars_data/1004.jpg"
        string_val: "C:/Users/rizwan.asif/Desktop/projects/SfMLearner/formatted_mars_data/10555.jpg"
        string_val: "C:/Users/rizwan.asif/Desktop/projects/SfMLearner/formatted_mars_data/11221.jpg"
        string_val: "C:/Users/rizwan.asif/Desktop/projects/SfMLearner/formatted_mars_data/10592.jpg"
        string_val: "C:/Users/rizwan.asif/Desktop/projects/SfMLearner/formatted_mars_data/11913.jpg"
        string_val: "C:/Users/rizwan.asif/Desktop/projects/SfMLearner/formatted_mars_data/10153.jpg"
        string_val: "C:/Users/rizwan.asif/Desktop/projects/SfMLearner/formatted_mars_data/11249.jpg"
        string_val: "C:/Users/rizwan.asif/Desktop/projects/SfMLearner/formatted_mars_data/11391.jpg"
        string_val: "C:/Users/rizwan.asif/Desktop/projects/SfMLearner/formatted_mars_data/10525.jpg"
        string_val: "C:/Users/rizwan.asif/Desktop/projects/SfMLearner/formatted_mars_data/10941.jpg"
        string_val: "C:/Users/rizwan.asif/Desktop/projects/SfMLearner/formatted_mars_data/10665.jpg"
        string_val: "C:/Users/rizwan.asif/Desktop/projects/SfMLearner/formatted_mars_data/11460.jpg"
        string_val: "C:/Users/rizwan.asif/Desktop/projects/SfMLearner/formatted_mars_data/11928.jpg"
        string_val: "C:/Users/rizwan.asif/Desktop/projects/SfMLearner/formatted_mars_data/10984.jpg"
        string_val: "C:/Users/rizwan.asif/Desktop/projects/SfMLearner/formatted_mars_data/11394.jpg"
        string_val: "C:/Users/rizwan.asif/Desktop/projects/SfMLearner/formatted_mars_data/11372.jpg"
        string_val: "C:/Users/rizwan.asif/Desktop/projects/SfMLearner/formatted_mars_data/11897.jpg"
        string_val: "C:/Users/rizwan.asif/Desktop/projects/SfMLearner/formatted_mars_data/12234.jpg"
        string_val: "C:/Users/rizwan.asif/Desktop/projects/SfMLearner/formatted_mars_data/12103.jpg"
        string_val: "C:/Users/rizwan.asif/Desktop/projects/SfMLearner/formatted_mars_data/10662.jpg"
        string_val: "C:/Users/rizwan.asif/Desktop/projects/SfMLearner/formatted_mars_data/12476.jpg"
        string_val: "C:/Users/rizwan.asif/Desktop/projects/SfMLearner/formatted_mars_data/11963.jpg"
        string_val: "C:/Users/rizwan.asif/Desktop/projects/SfMLearner/formatted_mars_data/12141.jpg"
        string_val: "C:/Users/rizwan.asif/Desktop/projects/SfMLearner/formatted_mars_data/10670.jpg"
        string_val: "C:/Users/rizwan.asif/Desktop/projects/SfMLearner/formatted_mars_data/11754.jpg"
        string_val: "C:/Users/rizwan.asif/Desktop/projects/SfMLearner/formatted_mars_data/10815.jpg"
        string_val: "C:/Users/rizwan.asif/Desktop/projects/SfMLearner/formatted_mars_data/11451.jpg"
        string_val: "C:/Users/rizwan.asif/Desktop/projects/SfMLearner/formatted_mars_data/11943.jpg"
        string_val: "C:/Users/rizwan.asif/Desktop/projects/SfMLearner/formatted_mars_data/10797.jpg"
        string_val: "C:/Users/rizwan.asif/Desktop/projects/SfMLearner/formatted_mars_data/10338.jpg"
        string_val: "C:/Users/rizwan.asif/Desktop/projects/SfMLearner/formatted_mars_data/1121.jpg"
        string_val: "C:/Users/rizwan.asif/Desktop/projects/SfMLearner/formatted_mars_data/10979.jpg"
        string_val: "C:/Users/rizwan.asif/Desktop/projects/SfMLearner/formatted_mars_data/11793.jpg"
        string_val: "C:/Users/rizwan.asif/Desktop/projects/SfMLearner/formatted_mars_data/11043.jpg"
        string_val: "C:/Users/rizwan.asif/Desktop/projects/SfMLearner/formatted_mars_data/12420.jpg"
        string_val: "C:/Users/rizwan.asif/Desktop/projects/SfMLearner/formatted_mars_data/1000.jpg"
        string_val: "C:/Users/rizwan.asif/Desktop/projects/SfMLearner/formatted_mars_data/11236.jpg"
        string_val: "C:/Users/rizwan.asif/Desktop/projects/SfMLearner/formatted_mars_data/12358.jpg"
        string_val: "C:/Users/rizwan.asif/Desktop/projects/SfMLearner/formatted_mars_data/1178.jpg"
        string_val: "C:/Users/rizwan.asif/Desktop/projects/SfMLearner/formatted_mars_data/12491.jpg"
        string_val: "C:/Users/rizwan.asif/Desktop/projects/SfMLearner/formatted_mars_data/11651.jpg"
        string_val: "C:/Users/rizwan.asif/Desktop/projects/SfMLearner/formatted_mars_data/12111.jpg"
        string_val: "C:/Users/rizwan.asif/Desktop/projects/SfMLearner/formatted_mars_data/11182.jpg"
        string_val: "C:/Users/rizwan.asif/Desktop/projects/SfMLearner/formatted_mars_data/1216.jpg"
        string_val: "C:/Users/rizwan.asif/Desktop/projects/SfMLearner/formatted_mars_data/11378.jpg"
        string_val: "C:/Users/rizwan.asif/Desktop/projects/SfMLearner/formatted_mars_data/11995.jpg"
        string_val: "C:/Users/rizwan.asif/Desktop/projects/SfMLearner/formatted_mars_data/10013.jpg"
        string_val: "C:/Users/rizwan.asif/Desktop/projects/SfMLearner/formatted_mars_data/11969.jpg"
        string_val: "C:/Users/rizwan.asif/Desktop/projects/SfMLearner/formatted_mars_data/10580.jpg"
        string_val: "C:/Users/rizwan.asif/Desktop/projects/SfMLearner/formatted_mars_data/10386.jpg"
        string_val: "C:/Users/rizwan.asif/Desktop/projects/SfMLearner/formatted_mars_data/11527.jpg"
        string_val: "C:/Users/rizwan.asif/Desktop/projects/SfMLearner/formatted_mars_data/12049.jpg"
        string_val: "C:/Users/rizwan.asif/Desktop/projects/SfMLearner/formatted_mars_data/11366.jpg"
        string_val: "C:/Users/rizwan.asif/Desktop/projects/SfMLearner/formatted_mars_data/12640.jpg"
        string_val: "C:/Users/rizwan.asif/Desktop/projects/SfMLearner/formatted_mars_data/12414.jpg"
        string_val: "C:/Users/rizwan.asif/Desktop/projects/SfMLearner/formatted_mars_data/11376.jpg"
        string_val: "C:/Users/rizwan.asif/Desktop/projects/SfMLearner/formatted_mars_data/12327.jpg"
        string_val: "C:/Users/rizwan.asif/Desktop/projects/SfMLearner/formatted_mars_data/12608.jpg"
        string_val: "C:/Users/rizwan.asif/Desktop/projects/SfMLearner/formatted_mars_data/11885.jpg"
        string_val: "C:/Users/rizwan.asif/Desktop/projects/SfMLearner/formatted_mars_data/12012.jpg"
        string_val: "C:/Users/rizwan.asif/Desktop/projects/SfMLearner/formatted_mars_data/11142.jpg"
        string_val: "C:/Users/rizwan.asif/Desktop/projects/SfMLearner/formatted_mars_data/12516.jpg"
        string_val: "C:/Users/rizwan.asif/Desktop/projects/SfMLearner/formatted_mars_data/11687.jpg"
        string_val: "C:/Users/rizwan.asif/Desktop/projects/SfMLearner/formatted_mars_data/11292.jpg"
        string_val: "C:/Users/rizwan.asif/Desktop/projects/SfMLearner/formatted_mars_data/10061.jpg"
        string_val: "C:/Users/rizwan.asif/Desktop/projects/SfMLearner/formatted_mars_data/10690.jpg"
        string_val: "C:/Users/rizwan.asif/Desktop/projects/SfMLearner/formatted_mars_data/11122.jpg"
        string_val: "C:/Users/rizwan.asif/Desktop/projects/SfMLearner/formatted_mars_data/12158.jpg"
        string_val: "C:/Users/rizwan.asif/Desktop/projects/SfMLearner/formatted_mars_data/10640.jpg"
        string_val: "C:/Users/rizwan.asif/Desktop/projects/SfMLearner/formatted_mars_data/10459.jpg"
        string_val: "C:/Users/rizwan.asif/Desktop/projects/SfMLearner/formatted_mars_data/11650.jpg"
        string_val: "C:/Users/rizwan.asif/Desktop/projects/SfMLearner/formatted_mars_data/10886.jpg"
        string_val: "C:/Users/rizwan.asif/Desktop/projects/SfMLearner/formatted_mars_data/1161.jpg"
        string_val: "C:/Users/rizwan.asif/Desktop/projects/SfMLearner/formatted_mars_data/12233.jpg"
        string_val: "C:/Users/rizwan.asif/Desktop/projects/SfMLearner/formatted_mars_data/11883.jpg"
        string_val: "C:/Users/rizwan.asif/Desktop/projects/SfMLearner/formatted_mars_data/10913.jpg"
        string_val: "C:/Users/rizwan.asif/Desktop/projects/SfMLearner/formatted_mars_data/10514.jpg"
        string_val: "C:/Users/rizwan.asif/Desktop/projects/SfMLearner/formatted_mars_data/11181.jpg"
        string_val: "C:/Users/rizwan.asif/Desktop/projects/SfMLearner/formatted_mars_data/12381.jpg"
        string_val: "C:/Users/rizwan.asif/Desktop/projects/SfMLearner/formatted_mars_data/11406.jpg"
        string_val: "C:/Users/rizwan.asif/Desktop/projects/SfMLearner/formatted_mars_data/10703.jpg"
        string_val: "C:/Users/rizwan.asif/Desktop/projects/SfMLearner/formatted_mars_data/12261.jpg"
        string_val: "C:/Users/rizwan.asif/Desktop/projects/SfMLearner/formatted_mars_data/12618.jpg"
        string_val: "C:/Users/rizwan.asif/Desktop/projects/SfMLearner/formatted_mars_data/12336.jpg"
        string_val: "C:/Users/rizwan.asif/Desktop/projects/SfMLearner/formatted_mars_data/1038.jpg"
        string_val: "C:/Users/rizwan.asif/Desktop/projects/SfMLearner/formatted_mars_data/12474.jpg"
        string_val: "C:/Users/rizwan.asif/Desktop/projects/SfMLearner/formatted_mars_data/12302.jpg"
        string_val: "C:/Users/rizwan.asif/Desktop/projects/SfMLearner/formatted_mars_data/12185.jpg"
        string_val: "C:/Users/rizwan.asif/Desktop/projects/SfMLearner/formatted_mars_data/10987.jpg"
        string_val: "C:/Users/rizwan.asif/Desktop/projects/SfMLearner/formatted_mars_data/10485.jpg"
        string_val: "C:/Users/rizwan.asif/Desktop/projects/SfMLearner/formatted_mars_data/10684.jpg"
        string_val: "C:/Users/rizwan.asif/Desktop/projects/SfMLearner/formatted_mars_data/10050.jpg"
        string_val: "C:/Users/rizwan.asif/Desktop/projects/SfMLearner/formatted_mars_data/12658.jpg"
        string_val: "C:/Users/rizwan.asif/Desktop/projects/SfMLearner/formatted_mars_data/11540.jpg"
        string_val: "C:/Users/rizwan.asif/Desktop/projects/SfMLearner/formatted_mars_data/11401.jpg"
        string_val: "C:/Users/rizwan.asif/Desktop/projects/SfMLearner/formatted_mars_data/11526.jpg"
        string_val: "C:/Users/rizwan.asif/Desktop/projects/SfMLearner/formatted_mars_data/11716.jpg"
        string_val: "C:/Users/rizwan.asif/Desktop/projects/SfMLearner/formatted_mars_data/11412.jpg"
        string_val: "C:/Users/rizwan.asif/Desktop/projects/SfMLearner/formatted_mars_data/11989.jpg"
        string_val: "C:/Users/rizwan.asif/Desktop/projects/SfMLearner/formatted_mars_data/12635.jpg"
        string_val: "C:/Users/rizwan.asif/Desktop/projects/SfMLearner/formatted_mars_data/12398.jpg"
        string_val: "C:/Users/rizwan.asif/Desktop/projects/SfMLearner/formatted_mars_data/11709.jpg"
        string_val: "C:/Users/rizwan.asif/Desktop/projects/SfMLearner/formatted_mars_data/10870.jpg"
        string_val: "C:/Users/rizwan.asif/Desktop/projects/SfMLearner/formatted_mars_data/11178.jpg"
        string_val: "C:/Users/rizwan.asif/Desktop/projects/SfMLearner/formatted_mars_data/10552.jpg"
        string_val: "C:/Users/rizwan.asif/Desktop/projects/SfMLearner/formatted_mars_data/12334.jpg"
        string_val: "C:/Users/rizwan.asif/Desktop/projects/SfMLearner/formatted_mars_data/10182.jpg"
        string_val: "C:/Users/rizwan.asif/Desktop/projects/SfMLearner/formatted_mars_data/1155.jpg"
        string_val: "C:/Users/rizwan.asif/Desktop/projects/SfMLearner/formatted_mars_data/12088.jpg"
        string_val: "C:/Users/rizwan.asif/Desktop/projects/SfMLearner/formatted_mars_data/11555.jpg"
        string_val: "C:/Users/rizwan.asif/Desktop/projects/SfMLearner/formatted_mars_data/12566.jpg"
        string_val: "C:/Users/rizwan.asif/Desktop/projects/SfMLearner/formatted_mars_data/11704.jpg"
        string_val: "C:/Users/rizwan.asif/Desktop/projects/SfMLearner/formatted_mars_data/11832.jpg"
        string_val: "C:/Users/rizwan.asif/Desktop/projects/SfMLearner/formatted_mars_data/11960.jpg"
        string_val: "C:/Users/rizwan.asif/Desktop/projects/SfMLearner/formatted_mars_data/11890.jpg"
        string_val: "C:/Users/rizwan.asif/Desktop/projects/SfMLearner/formatted_mars_data/11437.jpg"
        string_val: "C:/Users/rizwan.asif/Desktop/projects/SfMLearner/formatted_mars_data/11837.jpg"
        string_val: "C:/Users/rizwan.asif/Desktop/projects/SfMLearner/formatted_mars_data/10360.jpg"
        string_val: "C:/Users/rizwan.asif/Desktop/projects/SfMLearner/formatted_mars_data/1080.jpg"
        string_val: "C:/Users/rizwan.asif/Desktop/projects/SfMLearner/formatted_mars_data/11926.jpg"
        string_val: "C:/Users/rizwan.asif/Desktop/projects/SfMLearner/formatted_mars_data/10606.jpg"
        string_val: "C:/Users/rizwan.asif/Desktop/projects/SfMLearner/formatted_mars_data/1259.jpg"
        string_val: "C:/Users/rizwan.asif/Desktop/projects/SfMLearner/formatted_mars_data/10318.jpg"
        string_val: "C:/Users/rizwan.asif/Desktop/projects/SfMLearner/formatted_mars_data/10093.jpg"
        string_val: "C:/Users/rizwan.asif/Desktop/projects/SfMLearner/formatted_mars_data/12011.jpg"
        string_val: "C:/Users/rizwan.asif/Desktop/projects/SfMLearner/formatted_mars_data/12590.jpg"
        string_val: "C:/Users/rizwan.asif/Desktop/projects/SfMLearner/formatted_mars_data/11106.jpg"
        string_val: "C:/Users/rizwan.asif/Desktop/projects/SfMLearner/formatted_mars_data/12306.jpg"
        string_val: "C:/Users/rizwan.asif/Desktop/projects/SfMLearner/formatted_mars_data/12407.jpg"
        string_val: "C:/Users/rizwan.asif/Desktop/projects/SfMLearner/formatted_mars_data/11721.jpg"
        string_val: "C:/Users/rizwan.asif/Desktop/projects/SfMLearner/formatted_mars_data/11399.jpg"
        string_val: "C:/Users/rizwan.asif/Desktop/projects/SfMLearner/formatted_mars_data/10024.jpg"
        string_val: "C:/Users/rizwan.asif/Desktop/projects/SfMLearner/formatted_mars_data/10729.jpg"
        string_val: "C:/Users/rizwan.asif/Desktop/projects/SfMLearner/formatted_mars_data/10621.jpg"
        string_val: "C:/Users/rizwan.asif/Desktop/projects/SfMLearner/formatted_mars_data/10242.jpg"
        string_val: "C:/Users/rizwan.asif/Desktop/projects/SfMLearner/formatted_mars_data/11279.jpg"
        string_val: "C:/Users/rizwan.asif/Desktop/projects/SfMLearner/formatted_mars_data/1142.jpg"
        string_val: "C:/Users/rizwan.asif/Desktop/projects/SfMLearner/formatted_mars_data/10185.jpg"
        string_val: "C:/Users/rizwan.asif/Desktop/projects/SfMLearner/formatted_mars_data/12003.jpg"
        string_val: "C:/Users/rizwan.asif/Desktop/projects/SfMLearner/formatted_mars_data/11268.jpg"
        string_val: "C:/Users/rizwan.asif/Desktop/projects/SfMLearner/formatted_mars_data/10920.jpg"
        string_val: "C:/Users/rizwan.asif/Desktop/projects/SfMLearner/formatted_mars_data/12282.jpg"
        string_val: "C:/Users/rizwan.asif/Desktop/projects/SfMLearner/formatted_mars_data/11402.jpg"
        string_val: "C:/Users/rizwan.asif/Desktop/projects/SfMLearner/formatted_mars_data/12315.jpg"
        string_val: "C:/Users/rizwan.asif/Desktop/projects/SfMLearner/formatted_mars_data/11938.jpg"
        string_val: "C:/Users/rizwan.asif/Desktop/projects/SfMLearner/formatted_mars_data/10143.jpg"
        string_val: "C:/Users/rizwan.asif/Desktop/projects/SfMLearner/formatted_mars_data/12357.jpg"
        string_val: "C:/Users/rizwan.asif/Desktop/projects/SfMLearner/formatted_mars_data/11753.jpg"
        string_val: "C:/Users/rizwan.asif/Desktop/projects/SfMLearner/formatted_mars_data/12524.jpg"
        string_val: "C:/Users/rizwan.asif/Desktop/projects/SfMLearner/formatted_mars_data/10079.jpg"
        string_val: "C:/Users/rizwan.asif/Desktop/projects/SfMLearner/formatted_mars_data/11079.jpg"
        string_val: "C:/Users/rizwan.asif/Desktop/projects/SfMLearner/formatted_mars_data/10370.jpg"
        string_val: "C:/Users/rizwan.asif/Desktop/projects/SfMLearner/formatted_mars_data/11692.jpg"
        string_val: "C:/Users/rizwan.asif/Desktop/projects/SfMLearner/formatted_mars_data/10235.jpg"
        string_val: "C:/Users/rizwan.asif/Desktop/projects/SfMLearner/formatted_mars_data/10184.jpg"
        string_val: "C:/Users/rizwan.asif/Desktop/projects/SfMLearner/formatted_mars_data/12063.jpg"
        string_val: "C:/Users/rizwan.asif/Desktop/projects/SfMLearner/formatted_mars_data/1244.jpg"
        string_val: "C:/Users/rizwan.asif/Desktop/projects/SfMLearner/formatted_mars_data/12598.jpg"
        string_val: "C:/Users/rizwan.asif/Desktop/projects/SfMLearner/formatted_mars_data/12647.jpg"
        string_val: "C:/Users/rizwan.asif/Desktop/projects/SfMLearner/formatted_mars_data/10060.jpg"
        string_val: "C:/Users/rizwan.asif/Desktop/projects/SfMLearner/formatted_mars_data/1234.jpg"
        string_val: "C:/Users/rizwan.asif/Desktop/projects/SfMLearner/formatted_mars_data/1137.jpg"
        string_val: "C:/Users/rizwan.asif/Desktop/projects/SfMLearner/formatted_mars_data/1233.jpg"
        string_val: "C:/Users/rizwan.asif/Desktop/projects/SfMLearner/formatted_mars_data/12091.jpg"
        string_val: "C:/Users/rizwan.asif/Desktop/projects/SfMLearner/formatted_mars_data/12338.jpg"
        string_val: "C:/Users/rizwan.asif/Desktop/projects/SfMLearner/formatted_mars_data/10509.jpg"
        string_val: "C:/Users/rizwan.asif/Desktop/projects/SfMLearner/formatted_mars_data/12169.jpg"
        string_val: "C:/Users/rizwan.asif/Desktop/projects/SfMLearner/formatted_mars_data/11449.jpg"
        string_val: "C:/Users/rizwan.asif/Desktop/projects/SfMLearner/formatted_mars_data/10134.jpg"
        string_val: "C:/Users/rizwan.asif/Desktop/projects/SfMLearner/formatted_mars_data/11029.jpg"
        string_val: "C:/Users/rizwan.asif/Desktop/projects/SfMLearner/formatted_mars_data/12649.jpg"
        string_val: "C:/Users/rizwan.asif/Desktop/projects/SfMLearner/formatted_mars_data/10107.jpg"
        string_val: "C:/Users/rizwan.asif/Desktop/projects/SfMLearner/formatted_mars_data/11725.jpg"
        string_val: "C:/Users/rizwan.asif/Desktop/projects/SfMLearner/formatted_mars_data/12100.jpg"
        string_val: "C:/Users/rizwan.asif/Desktop/projects/SfMLearner/formatted_mars_data/11901.jpg"
        string_val: "C:/Users/rizwan.asif/Desktop/projects/SfMLearner/formatted_mars_data/11676.jpg"
        string_val: "C:/Users/rizwan.asif/Desktop/projects/SfMLearner/formatted_mars_data/12316.jpg"
        string_val: "C:/Users/rizwan.asif/Desktop/projects/SfMLearner/formatted_mars_data/11907.jpg"
        string_val: "C:/Users/rizwan.asif/Desktop/projects/SfMLearner/formatted_mars_data/11819.jpg"
        string_val: "C:/Users/rizwan.asif/Desktop/projects/SfMLearner/formatted_mars_data/10666.jpg"
        string_val: "C:/Users/rizwan.asif/Desktop/projects/SfMLearner/formatted_mars_data/10225.jpg"
        string_val: "C:/Users/rizwan.asif/Desktop/projects/SfMLearner/formatted_mars_data/10909.jpg"
        string_val: "C:/Users/rizwan.asif/Desktop/projects/SfMLearner/formatted_mars_data/12615.jpg"
        string_val: "C:/Users/rizwan.asif/Desktop/projects/SfMLearner/formatted_mars_data/10316.jpg"
        string_val: "C:/Users/rizwan.asif/Desktop/projects/SfMLearner/formatted_mars_data/12275.jpg"
        string_val: "C:/Users/rizwan.asif/Desktop/projects/SfMLearner/formatted_mars_data/10626.jpg"
        string_val: "C:/Users/rizwan.asif/Desktop/projects/SfMLearner/formatted_mars_data/10047.jpg"
        string_val: "C:/Users/rizwan.asif/Desktop/projects/SfMLearner/formatted_mars_data/1.jpg"
        string_val: "C:/Users/rizwan.asif/Desktop/projects/SfMLearner/formatted_mars_data/11191.jpg"
        string_val: "C:/Users/rizwan.asif/Desktop/projects/SfMLearner/formatted_mars_data/10501.jpg"
        string_val: "C:/Users/rizwan.asif/Desktop/projects/SfMLearner/formatted_mars_data/12446.jpg"
        string_val: "C:/Users/rizwan.asif/Desktop/projects/SfMLearner/formatted_mars_data/10402.jpg"
        string_val: "C:/Users/rizwan.asif/Desktop/projects/SfMLearner/formatted_mars_data/10691.jpg"
        string_val: "C:/Users/rizwan.asif/Desktop/projects/SfMLearner/formatted_mars_data/12373.jpg"
        string_val: "C:/Users/rizwan.asif/Desktop/projects/SfMLearner/formatted_mars_data/11777.jpg"
        string_val: "C:/Users/rizwan.asif/Desktop/projects/SfMLearner/formatted_mars_data/11944.jpg"
        string_val: "C:/Users/rizwan.asif/Desktop/projects/SfMLearner/formatted_mars_data/10299.jpg"
        string_val: "C:/Users/rizwan.asif/Desktop/projects/SfMLearner/formatted_mars_data/10092.jpg"
        string_val: "C:/Users/rizwan.asif/Desktop/projects/SfMLearner/formatted_mars_data/10725.jpg"
        string_val: "C:/Users/rizwan.asif/Desktop/projects/SfMLearner/formatted_mars_data/11608.jpg"
        string_val: "C:/Users/rizwan.asif/Desktop/projects/SfMLearner/formatted_mars_data/10483.jpg"
        string_val: "C:/Users/rizwan.asif/Desktop/projects/SfMLearner/formatted_mars_data/12308.jpg"
        string_val: "C:/Users/rizwan.asif/Desktop/projects/SfMLearner/formatted_mars_data/10262.jpg"
        string_val: "C:/Users/rizwan.asif/Desktop/projects/SfMLearner/formatted_mars_data/11032.jpg"
        string_val: "C:/Users/rizwan.asif/Desktop/projects/SfMLearner/formatted_mars_data/11229.jpg"
        string_val: "C:/Users/rizwan.asif/Desktop/projects/SfMLearner/formatted_mars_data/114.jpg"
        string_val: "C:/Users/rizwan.asif/Desktop/projects/SfMLearner/formatted_mars_data/1249.jpg"
        string_val: "C:/Users/rizwan.asif/Desktop/projects/SfMLearner/formatted_mars_data/11059.jpg"
        string_val: "C:/Users/rizwan.asif/Desktop/projects/SfMLearner/formatted_mars_data/11147.jpg"
        string_val: "C:/Users/rizwan.asif/Desktop/projects/SfMLearner/formatted_mars_data/12416.jpg"
        string_val: "C:/Users/rizwan.asif/Desktop/projects/SfMLearner/formatted_mars_data/10861.jpg"
        string_val: "C:/Users/rizwan.asif/Desktop/projects/SfMLearner/formatted_mars_data/10532.jpg"
        string_val: "C:/Users/rizwan.asif/Desktop/projects/SfMLearner/formatted_mars_data/11742.jpg"
        string_val: "C:/Users/rizwan.asif/Desktop/projects/SfMLearner/formatted_mars_data/10025.jpg"
        string_val: "C:/Users/rizwan.asif/Desktop/projects/SfMLearner/formatted_mars_data/10805.jpg"
        string_val: "C:/Users/rizwan.asif/Desktop/projects/SfMLearner/formatted_mars_data/12052.jpg"
        string_val: "C:/Users/rizwan.asif/Desktop/projects/SfMLearner/formatted_mars_data/11792.jpg"
        string_val: "C:/Users/rizwan.asif/Desktop/projects/SfMLearner/formatted_mars_data/12249.jpg"
        string_val: "C:/Users/rizwan.asif/Desktop/projects/SfMLearner/formatted_mars_data/10309.jpg"
        string_val: "C:/Users/rizwan.asif/Desktop/projects/SfMLearner/formatted_mars_data/10924.jpg"
        string_val: "C:/Users/rizwan.asif/Desktop/projects/SfMLearner/formatted_mars_data/12037.jpg"
        string_val: "C:/Users/rizwan.asif/Desktop/projects/SfMLearner/formatted_mars_data/11424.jpg"
        string_val: "C:/Users/rizwan.asif/Desktop/projects/SfMLearner/formatted_mars_data/10046.jpg"
        string_val: "C:/Users/rizwan.asif/Desktop/projects/SfMLearner/formatted_mars_data/11950.jpg"
        string_val: "C:/Users/rizwan.asif/Desktop/projects/SfMLearner/formatted_mars_data/1012.jpg"
        string_val: "C:/Users/rizwan.asif/Desktop/projects/SfMLearner/formatted_mars_data/1007.jpg"
        string_val: "C:/Users/rizwan.asif/Desktop/projects/SfMLearner/formatted_mars_data/10872.jpg"
        string_val: "C:/Users/rizwan.asif/Desktop/projects/SfMLearner/formatted_mars_data/11979.jpg"
        string_val: "C:/Users/rizwan.asif/Desktop/projects/SfMLearner/formatted_mars_data/11966.jpg"
        string_val: "C:/Users/rizwan.asif/Desktop/projects/SfMLearner/formatted_mars_data/1095.jpg"
        string_val: "C:/Users/rizwan.asif/Desktop/projects/SfMLearner/formatted_mars_data/12010.jpg"
        string_val: "C:/Users/rizwan.asif/Desktop/projects/SfMLearner/formatted_mars_data/12351.jpg"
        string_val: "C:/Users/rizwan.asif/Desktop/projects/SfMLearner/formatted_mars_data/12347.jpg"
        string_val: "C:/Users/rizwan.asif/Desktop/projects/SfMLearner/formatted_mars_data/1120.jpg"
        string_val: "C:/Users/rizwan.asif/Desktop/projects/SfMLearner/formatted_mars_data/10784.jpg"
        string_val: "C:/Users/rizwan.asif/Desktop/projects/SfMLearner/formatted_mars_data/10425.jpg"
        string_val: "C:/Users/rizwan.asif/Desktop/projects/SfMLearner/formatted_mars_data/11672.jpg"
        string_val: "C:/Users/rizwan.asif/Desktop/projects/SfMLearner/formatted_mars_data/10823.jpg"
        string_val: "C:/Users/rizwan.asif/Desktop/projects/SfMLearner/formatted_mars_data/12160.jpg"
        string_val: "C:/Users/rizwan.asif/Desktop/projects/SfMLearner/formatted_mars_data/10518.jpg"
        string_val: "C:/Users/rizwan.asif/Desktop/projects/SfMLearner/formatted_mars_data/10688.jpg"
        string_val: "C:/Users/rizwan.asif/Desktop/projects/SfMLearner/formatted_mars_data/1050.jpg"
        string_val: "C:/Users/rizwan.asif/Desktop/projects/SfMLearner/formatted_mars_data/12179.jpg"
        string_val: "C:/Users/rizwan.asif/Desktop/projects/SfMLearner/formatted_mars_data/10631.jpg"
        string_val: "C:/Users/rizwan.asif/Desktop/projects/SfMLearner/formatted_mars_data/12110.jpg"
        string_val: "C:/Users/rizwan.asif/Desktop/projects/SfMLearner/formatted_mars_data/10191.jpg"
        string_val: "C:/Users/rizwan.asif/Desktop/projects/SfMLearner/formatted_mars_data/12463.jpg"
        string_val: "C:/Users/rizwan.asif/Desktop/projects/SfMLearner/formatted_mars_data/10249.jpg"
        string_val: "C:/Users/rizwan.asif/Desktop/projects/SfMLearner/formatted_mars_data/11216.jpg"
        string_val: "C:/Users/rizwan.asif/Desktop/projects/SfMLearner/formatted_mars_data/10356.jpg"
        string_val: "C:/Users/rizwan.asif/Desktop/projects/SfMLearner/formatted_mars_data/10857.jpg"
        string_val: "C:/Users/rizwan.asif/Desktop/projects/SfMLearner/formatted_mars_data/11757.jpg"
        string_val: "C:/Users/rizwan.asif/Desktop/projects/SfMLearner/formatted_mars_data/10959.jpg"
        string_val: "C:/Users/rizwan.asif/Desktop/projects/SfMLearner/formatted_mars_data/1042.jpg"
        string_val: "C:/Users/rizwan.asif/Desktop/projects/SfMLearner/formatted_mars_data/11213.jpg"
        string_val: "C:/Users/rizwan.asif/Desktop/projects/SfMLearner/formatted_mars_data/10112.jpg"
        string_val: "C:/Users/rizwan.asif/Desktop/projects/SfMLearner/formatted_mars_data/10992.jpg"
        string_val: "C:/Users/rizwan.asif/Desktop/projects/SfMLearner/formatted_mars_data/11149.jpg"
        string_val: "C:/Users/rizwan.asif/Desktop/projects/SfMLearner/formatted_mars_data/12457.jpg"
        string_val: "C:/Users/rizwan.asif/Desktop/projects/SfMLearner/formatted_mars_data/10578.jpg"
        string_val: "C:/Users/rizwan.asif/Desktop/projects/SfMLearner/formatted_mars_data/10911.jpg"
        string_val: "C:/Users/rizwan.asif/Desktop/projects/SfMLearner/formatted_mars_data/12654.jpg"
        string_val: "C:/Users/rizwan.asif/Desktop/projects/SfMLearner/formatted_mars_data/10956.jpg"
        string_val: "C:/Users/rizwan.asif/Desktop/projects/SfMLearner/formatted_mars_data/11924.jpg"
        string_val: "C:/Users/rizwan.asif/Desktop/projects/SfMLearner/formatted_mars_data/12348.jpg"
        string_val: "C:/Users/rizwan.asif/Desktop/projects/SfMLearner/formatted_mars_data/11083.jpg"
        string_val: "C:/Users/rizwan.asif/Desktop/projects/SfMLearner/formatted_mars_data/11395.jpg"
        string_val: "C:/Users/rizwan.asif/Desktop/projects/SfMLearner/formatted_mars_data/11392.jpg"
        string_val: "C:/Users/rizwan.asif/Desktop/projects/SfMLearner/formatted_mars_data/12193.jpg"
        string_val: "C:/Users/rizwan.asif/Desktop/projects/SfMLearner/formatted_mars_data/10321.jpg"
        string_val: "C:/Users/rizwan.asif/Desktop/projects/SfMLearner/formatted_mars_data/10692.jpg"
        string_val: "C:/Users/rizwan.asif/Desktop/projects/SfMLearner/formatted_mars_data/11889.jpg"
        string_val: "C:/Users/rizwan.asif/Desktop/projects/SfMLearner/formatted_mars_data/12403.jpg"
        string_val: "C:/Users/rizwan.asif/Desktop/projects/SfMLearner/formatted_mars_data/11833.jpg"
        string_val: "C:/Users/rizwan.asif/Desktop/projects/SfMLearner/formatted_mars_data/10931.jpg"
        string_val: "C:/Users/rizwan.asif/Desktop/projects/SfMLearner/formatted_mars_data/10290.jpg"
        string_val: "C:/Users/rizwan.asif/Desktop/projects/SfMLearner/formatted_mars_data/11746.jpg"
        string_val: "C:/Users/rizwan.asif/Desktop/projects/SfMLearner/formatted_mars_data/12117.jpg"
        string_val: "C:/Users/rizwan.asif/Desktop/projects/SfMLearner/formatted_mars_data/11797.jpg"
        string_val: "C:/Users/rizwan.asif/Desktop/projects/SfMLearner/formatted_mars_data/10072.jpg"
        string_val: "C:/Users/rizwan.asif/Desktop/projects/SfMLearner/formatted_mars_data/11496.jpg"
        string_val: "C:/Users/rizwan.asif/Desktop/projects/SfMLearner/formatted_mars_data/10720.jpg"
        string_val: "C:/Users/rizwan.asif/Desktop/projects/SfMLearner/formatted_mars_data/12628.jpg"
        string_val: "C:/Users/rizwan.asif/Desktop/projects/SfMLearner/formatted_mars_data/1088.jpg"
        string_val: "C:/Users/rizwan.asif/Desktop/projects/SfMLearner/formatted_mars_data/10969.jpg"
        string_val: "C:/Users/rizwan.asif/Desktop/projects/SfMLearner/formatted_mars_data/11444.jpg"
        string_val: "C:/Users/rizwan.asif/Desktop/projects/SfMLearner/formatted_mars_data/11512.jpg"
        string_val: "C:/Users/rizwan.asif/Desktop/projects/SfMLearner/formatted_mars_data/11477.jpg"
        string_val: "C:/Users/rizwan.asif/Desktop/projects/SfMLearner/formatted_mars_data/12128.jpg"
        string_val: "C:/Users/rizwan.asif/Desktop/projects/SfMLearner/formatted_mars_data/11258.jpg"
        string_val: "C:/Users/rizwan.asif/Desktop/projects/SfMLearner/formatted_mars_data/12009.jpg"
        string_val: "C:/Users/rizwan.asif/Desktop/projects/SfMLearner/formatted_mars_data/12588.jpg"
        string_val: "C:/Users/rizwan.asif/Desktop/projects/SfMLearner/formatted_mars_data/11787.jpg"
        string_val: "C:/Users/rizwan.asif/Desktop/projects/SfMLearner/formatted_mars_data/12344.jpg"
        string_val: "C:/Users/rizwan.asif/Desktop/projects/SfMLearner/formatted_mars_data/11140.jpg"
        string_val: "C:/Users/rizwan.asif/Desktop/projects/SfMLearner/formatted_mars_data/10010.jpg"
        string_val: "C:/Users/rizwan.asif/Desktop/projects/SfMLearner/formatted_mars_data/12539.jpg"
        string_val: "C:/Users/rizwan.asif/Desktop/projects/SfMLearner/formatted_mars_data/10981.jpg"
        string_val: "C:/Users/rizwan.asif/Desktop/projects/SfMLearner/formatted_mars_data/11384.jpg"
        string_val: "C:/Users/rizwan.asif/Desktop/projects/SfMLearner/formatted_mars_data/10404.jpg"
        string_val: "C:/Users/rizwan.asif/Desktop/projects/SfMLearner/formatted_mars_data/10447.jpg"
        string_val: "C:/Users/rizwan.asif/Desktop/projects/SfMLearner/formatted_mars_data/10028.jpg"
        string_val: "C:/Users/rizwan.asif/Desktop/projects/SfMLearner/formatted_mars_data/11865.jpg"
        string_val: "C:/Users/rizwan.asif/Desktop/projects/SfMLearner/formatted_mars_data/11570.jpg"
        string_val: "C:/Users/rizwan.asif/Desktop/projects/SfMLearner/formatted_mars_data/11410.jpg"
        string_val: "C:/Users/rizwan.asif/Desktop/projects/SfMLearner/formatted_mars_data/10116.jpg"
        string_val: "C:/Users/rizwan.asif/Desktop/projects/SfMLearner/formatted_mars_data/10844.jpg"
        string_val: "C:/Users/rizwan.asif/Desktop/projects/SfMLearner/formatted_mars_data/10906.jpg"
        string_val: "C:/Users/rizwan.asif/Desktop/projects/SfMLearner/formatted_mars_data/10326.jpg"
        string_val: "C:/Users/rizwan.asif/Desktop/projects/SfMLearner/formatted_mars_data/10713.jpg"
        string_val: "C:/Users/rizwan.asif/Desktop/projects/SfMLearner/formatted_mars_data/11071.jpg"
        string_val: "C:/Users/rizwan.asif/Desktop/projects/SfMLearner/formatted_mars_data/10875.jpg"
        string_val: "C:/Users/rizwan.asif/Desktop/projects/SfMLearner/formatted_mars_data/12075.jpg"
        string_val: "C:/Users/rizwan.asif/Desktop/projects/SfMLearner/formatted_mars_data/1005.jpg"
        string_val: "C:/Users/rizwan.asif/Desktop/projects/SfMLearner/formatted_mars_data/1153.jpg"
        string_val: "C:/Users/rizwan.asif/Desktop/projects/SfMLearner/formatted_mars_data/11770.jpg"
        string_val: "C:/Users/rizwan.asif/Desktop/projects/SfMLearner/formatted_mars_data/10478.jpg"
        string_val: "C:/Users/rizwan.asif/Desktop/projects/SfMLearner/formatted_mars_data/11248.jpg"
        string_val: "C:/Users/rizwan.asif/Desktop/projects/SfMLearner/formatted_mars_data/10516.jpg"
        string_val: "C:/Users/rizwan.asif/Desktop/projects/SfMLearner/formatted_mars_data/10499.jpg"
        string_val: "C:/Users/rizwan.asif/Desktop/projects/SfMLearner/formatted_mars_data/11744.jpg"
        string_val: "C:/Users/rizwan.asif/Desktop/projects/SfMLearner/formatted_mars_data/10819.jpg"
        string_val: "C:/Users/rizwan.asif/Desktop/projects/SfMLearner/formatted_mars_data/10613.jpg"
        string_val: "C:/Users/rizwan.asif/Desktop/projects/SfMLearner/formatted_mars_data/11780.jpg"
        string_val: "C:/Users/rizwan.asif/Desktop/projects/SfMLearner/formatted_mars_data/10928.jpg"
        string_val: "C:/Users/rizwan.asif/Desktop/projects/SfMLearner/formatted_mars_data/10009.jpg"
        string_val: "C:/Users/rizwan.asif/Desktop/projects/SfMLearner/formatted_mars_data/10772.jpg"
        string_val: "C:/Users/rizwan.asif/Desktop/projects/SfMLearner/formatted_mars_data/11509.jpg"
        string_val: "C:/Users/rizwan.asif/Desktop/projects/SfMLearner/formatted_mars_data/11594.jpg"
        string_val: "C:/Users/rizwan.asif/Desktop/projects/SfMLearner/formatted_mars_data/10400.jpg"
        string_val: "C:/Users/rizwan.asif/Desktop/projects/SfMLearner/formatted_mars_data/11635.jpg"
        string_val: "C:/Users/rizwan.asif/Desktop/projects/SfMLearner/formatted_mars_data/12239.jpg"
        string_val: "C:/Users/rizwan.asif/Desktop/projects/SfMLearner/formatted_mars_data/11342.jpg"
        string_val: "C:/Users/rizwan.asif/Desktop/projects/SfMLearner/formatted_mars_data/11242.jpg"
        string_val: "C:/Users/rizwan.asif/Desktop/projects/SfMLearner/formatted_mars_data/12602.jpg"
        string_val: "C:/Users/rizwan.asif/Desktop/projects/SfMLearner/formatted_mars_data/1081.jpg"
        string_val: "C:/Users/rizwan.asif/Desktop/projects/SfMLearner/formatted_mars_data/10238.jpg"
        string_val: "C:/Users/rizwan.asif/Desktop/projects/SfMLearner/formatted_mars_data/122.jpg"
        string_val: "C:/Users/rizwan.asif/Desktop/projects/SfMLearner/formatted_mars_data/10779.jpg"
        string_val: "C:/Users/rizwan.asif/Desktop/projects/SfMLearner/formatted_mars_data/11670.jpg"
        string_val: "C:/Users/rizwan.asif/Desktop/projects/SfMLearner/formatted_mars_data/11157.jpg"
        string_val: "C:/Users/rizwan.asif/Desktop/projects/SfMLearner/formatted_mars_data/10903.jpg"
        string_val: "C:/Users/rizwan.asif/Desktop/projects/SfMLearner/formatted_mars_data/10877.jpg"
        string_val: "C:/Users/rizwan.asif/Desktop/projects/SfMLearner/formatted_mars_data/11689.jpg"
        string_val: "C:/Users/rizwan.asif/Desktop/projects/SfMLearner/formatted_mars_data/11520.jpg"
        string_val: "C:/Users/rizwan.asif/Desktop/projects/SfMLearner/formatted_mars_data/11530.jpg"
        string_val: "C:/Users/rizwan.asif/Desktop/projects/SfMLearner/formatted_mars_data/1173.jpg"
        string_val: "C:/Users/rizwan.asif/Desktop/projects/SfMLearner/formatted_mars_data/1166.jpg"
        string_val: "C:/Users/rizwan.asif/Desktop/projects/SfMLearner/formatted_mars_data/11708.jpg"
        string_val: "C:/Users/rizwan.asif/Desktop/projects/SfMLearner/formatted_mars_data/1115.jpg"
        string_val: "C:/Users/rizwan.asif/Desktop/projects/SfMLearner/formatted_mars_data/12195.jpg"
        string_val: "C:/Users/rizwan.asif/Desktop/projects/SfMLearner/formatted_mars_data/12354.jpg"
        string_val: "C:/Users/rizwan.asif/Desktop/projects/SfMLearner/formatted_mars_data/11056.jpg"
        string_val: "C:/Users/rizwan.asif/Desktop/projects/SfMLearner/formatted_mars_data/11116.jpg"
        string_val: "C:/Users/rizwan.asif/Desktop/projects/SfMLearner/formatted_mars_data/11680.jpg"
        string_val: "C:/Users/rizwan.asif/Desktop/projects/SfMLearner/formatted_mars_data/1227.jpg"
        string_val: "C:/Users/rizwan.asif/Desktop/projects/SfMLearner/formatted_mars_data/1135.jpg"
        string_val: "C:/Users/rizwan.asif/Desktop/projects/SfMLearner/formatted_mars_data/10758.jpg"
        string_val: "C:/Users/rizwan.asif/Desktop/projects/SfMLearner/formatted_mars_data/12641.jpg"
        string_val: "C:/Users/rizwan.asif/Desktop/projects/SfMLearner/formatted_mars_data/10997.jpg"
        string_val: "C:/Users/rizwan.asif/Desktop/projects/SfMLearner/formatted_mars_data/1156.jpg"
        string_val: "C:/Users/rizwan.asif/Desktop/projects/SfMLearner/formatted_mars_data/11334.jpg"
        string_val: "C:/Users/rizwan.asif/Desktop/projects/SfMLearner/formatted_mars_data/1133.jpg"
        string_val: "C:/Users/rizwan.asif/Desktop/projects/SfMLearner/formatted_mars_data/11629.jpg"
        string_val: "C:/Users/rizwan.asif/Desktop/projects/SfMLearner/formatted_mars_data/12511.jpg"
        string_val: "C:/Users/rizwan.asif/Desktop/projects/SfMLearner/formatted_mars_data/11074.jpg"
        string_val: "C:/Users/rizwan.asif/Desktop/projects/SfMLearner/formatted_mars_data/12473.jpg"
        string_val: "C:/Users/rizwan.asif/Desktop/projects/SfMLearner/formatted_mars_data/12546.jpg"
        string_val: "C:/Users/rizwan.asif/Desktop/projects/SfMLearner/formatted_mars_data/11638.jpg"
        string_val: "C:/Users/rizwan.asif/Desktop/projects/SfMLearner/formatted_mars_data/1230.jpg"
        string_val: "C:/Users/rizwan.asif/Desktop/projects/SfMLearner/formatted_mars_data/11548.jpg"
        string_val: "C:/Users/rizwan.asif/Desktop/projects/SfMLearner/formatted_mars_data/11201.jpg"
        string_val: "C:/Users/rizwan.asif/Desktop/projects/SfMLearner/formatted_mars_data/0.jpg"
        string_val: "C:/Users/rizwan.asif/Desktop/projects/SfMLearner/formatted_mars_data/10910.jpg"
        string_val: "C:/Users/rizwan.asif/Desktop/projects/SfMLearner/formatted_mars_data/12364.jpg"
        string_val: "C:/Users/rizwan.asif/Desktop/projects/SfMLearner/formatted_mars_data/11984.jpg"
        string_val: "C:/Users/rizwan.asif/Desktop/projects/SfMLearner/formatted_mars_data/11949.jpg"
        string_val: "C:/Users/rizwan.asif/Desktop/projects/SfMLearner/formatted_mars_data/10905.jpg"
        string_val: "C:/Users/rizwan.asif/Desktop/projects/SfMLearner/formatted_mars_data/12196.jpg"
        string_val: "C:/Users/rizwan.asif/Desktop/projects/SfMLearner/formatted_mars_data/10790.jpg"
        string_val: "C:/Users/rizwan.asif/Desktop/projects/SfMLearner/formatted_mars_data/11660.jpg"
        string_val: "C:/Users/rizwan.asif/Desktop/projects/SfMLearner/formatted_mars_data/10522.jpg"
        string_val: "C:/Users/rizwan.asif/Desktop/projects/SfMLearner/formatted_mars_data/12543.jpg"
        string_val: "C:/Users/rizwan.asif/Desktop/projects/SfMLearner/formatted_mars_data/10545.jpg"
        string_val: "C:/Users/rizwan.asif/Desktop/projects/SfMLearner/formatted_mars_data/1015.jpg"
        string_val: "C:/Users/rizwan.asif/Desktop/projects/SfMLearner/formatted_mars_data/11954.jpg"
        string_val: "C:/Users/rizwan.asif/Desktop/projects/SfMLearner/formatted_mars_data/10531.jpg"
        string_val: "C:/Users/rizwan.asif/Desktop/projects/SfMLearner/formatted_mars_data/12224.jpg"
        string_val: "C:/Users/rizwan.asif/Desktop/projects/SfMLearner/formatted_mars_data/11377.jpg"
        string_val: "C:/Users/rizwan.asif/Desktop/projects/SfMLearner/formatted_mars_data/1188.jpg"
        string_val: "C:/Users/rizwan.asif/Desktop/projects/SfMLearner/formatted_mars_data/12505.jpg"
        string_val: "C:/Users/rizwan.asif/Desktop/projects/SfMLearner/formatted_mars_data/12569.jpg"
        string_val: "C:/Users/rizwan.asif/Desktop/projects/SfMLearner/formatted_mars_data/12105.jpg"
        string_val: "C:/Users/rizwan.asif/Desktop/projects/SfMLearner/formatted_mars_data/11879.jpg"
        string_val: "C:/Users/rizwan.asif/Desktop/projects/SfMLearner/formatted_mars_data/12209.jpg"
        string_val: "C:/Users/rizwan.asif/Desktop/projects/SfMLearner/formatted_mars_data/11458.jpg"
        string_val: "C:/Users/rizwan.asif/Desktop/projects/SfMLearner/formatted_mars_data/11037.jpg"
        string_val: "C:/Users/rizwan.asif/Desktop/projects/SfMLearner/formatted_mars_data/10750.jpg"
        string_val: "C:/Users/rizwan.asif/Desktop/projects/SfMLearner/formatted_mars_data/11203.jpg"
        string_val: "C:/Users/rizwan.asif/Desktop/projects/SfMLearner/formatted_mars_data/10487.jpg"
        string_val: "C:/Users/rizwan.asif/Desktop/projects/SfMLearner/formatted_mars_data/11517.jpg"
        string_val: "C:/Users/rizwan.asif/Desktop/projects/SfMLearner/formatted_mars_data/1203.jpg"
        string_val: "C:/Users/rizwan.asif/Desktop/projects/SfMLearner/formatted_mars_data/1176.jpg"
        string_val: "C:/Users/rizwan.asif/Desktop/projects/SfMLearner/formatted_mars_data/11948.jpg"
        string_val: "C:/Users/rizwan.asif/Desktop/projects/SfMLearner/formatted_mars_data/10799.jpg"
        string_val: "C:/Users/rizwan.asif/Desktop/projects/SfMLearner/formatted_mars_data/11020.jpg"
        string_val: "C:/Users/rizwan.asif/Desktop/projects/SfMLearner/formatted_mars_data/10150.jpg"
        string_val: "C:/Users/rizwan.asif/Desktop/projects/SfMLearner/formatted_mars_data/10537.jpg"
        string_val: "C:/Users/rizwan.asif/Desktop/projects/SfMLearner/formatted_mars_data/10410.jpg"
        string_val: "C:/Users/rizwan.asif/Desktop/projects/SfMLearner/formatted_mars_data/10440.jpg"
        string_val: "C:/Users/rizwan.asif/Desktop/projects/SfMLearner/formatted_mars_data/11558.jpg"
        string_val: "C:/Users/rizwan.asif/Desktop/projects/SfMLearner/formatted_mars_data/11335.jpg"
        string_val: "C:/Users/rizwan.asif/Desktop/projects/SfMLearner/formatted_mars_data/11888.jpg"
        string_val: "C:/Users/rizwan.asif/Desktop/projects/SfMLearner/formatted_mars_data/12479.jpg"
        string_val: "C:/Users/rizwan.asif/Desktop/projects/SfMLearner/formatted_mars_data/12560.jpg"
        string_val: "C:/Users/rizwan.asif/Desktop/projects/SfMLearner/formatted_mars_data/1265.jpg"
        string_val: "C:/Users/rizwan.asif/Desktop/projects/SfMLearner/formatted_mars_data/11794.jpg"
        string_val: "C:/Users/rizwan.asif/Desktop/projects/SfMLearner/formatted_mars_data/10308.jpg"
        string_val: "C:/Users/rizwan.asif/Desktop/projects/SfMLearner/formatted_mars_data/10573.jpg"
        string_val: "C:/Users/rizwan.asif/Desktop/projects/SfMLearner/formatted_mars_data/11985.jpg"
        string_val: "C:/Users/rizwan.asif/Desktop/projects/SfMLearner/formatted_mars_data/11076.jpg"
        string_val: "C:/Users/rizwan.asif/Desktop/projects/SfMLearner/formatted_mars_data/1208.jpg"
        string_val: "C:/Users/rizwan.asif/Desktop/projects/SfMLearner/formatted_mars_data/110.jpg"
        string_val: "C:/Users/rizwan.asif/Desktop/projects/SfMLearner/formatted_mars_data/10232.jpg"
        string_val: "C:/Users/rizwan.asif/Desktop/projects/SfMLearner/formatted_mars_data/10263.jpg"
        string_val: "C:/Users/rizwan.asif/Desktop/projects/SfMLearner/formatted_mars_data/11481.jpg"
        string_val: "C:/Users/rizwan.asif/Desktop/projects/SfMLearner/formatted_mars_data/11737.jpg"
        string_val: "C:/Users/rizwan.asif/Desktop/projects/SfMLearner/formatted_mars_data/11324.jpg"
        string_val: "C:/Users/rizwan.asif/Desktop/projects/SfMLearner/formatted_mars_data/12502.jpg"
        string_val: "C:/Users/rizwan.asif/Desktop/projects/SfMLearner/formatted_mars_data/10738.jpg"
        string_val: "C:/Users/rizwan.asif/Desktop/projects/SfMLearner/formatted_mars_data/11745.jpg"
        string_val: "C:/Users/rizwan.asif/Desktop/projects/SfMLearner/formatted_mars_data/10395.jpg"
        string_val: "C:/Users/rizwan.asif/Desktop/projects/SfMLearner/formatted_mars_data/12330.jpg"
        string_val: "C:/Users/rizwan.asif/Desktop/projects/SfMLearner/formatted_mars_data/10599.jpg"
        string_val: "C:/Users/rizwan.asif/Desktop/projects/SfMLearner/formatted_mars_data/10838.jpg"
        string_val: "C:/Users/rizwan.asif/Desktop/projects/SfMLearner/formatted_mars_data/12221.jpg"
        string_val: "C:/Users/rizwan.asif/Desktop/projects/SfMLearner/formatted_mars_data/10065.jpg"
        string_val: "C:/Users/rizwan.asif/Desktop/projects/SfMLearner/formatted_mars_data/10647.jpg"
        string_val: "C:/Users/rizwan.asif/Desktop/projects/SfMLearner/formatted_mars_data/10152.jpg"
        string_val: "C:/Users/rizwan.asif/Desktop/projects/SfMLearner/formatted_mars_data/10746.jpg"
        string_val: "C:/Users/rizwan.asif/Desktop/projects/SfMLearner/formatted_mars_data/11341.jpg"
        string_val: "C:/Users/rizwan.asif/Desktop/projects/SfMLearner/formatted_mars_data/12333.jpg"
        string_val: "C:/Users/rizwan.asif/Desktop/projects/SfMLearner/formatted_mars_data/11786.jpg"
        string_val: "C:/Users/rizwan.asif/Desktop/projects/SfMLearner/formatted_mars_data/10510.jpg"
        string_val: "C:/Users/rizwan.asif/Desktop/projects/SfMLearner/formatted_mars_data/10433.jpg"
        string_val: "C:/Users/rizwan.asif/Desktop/projects/SfMLearner/formatted_mars_data/1165.jpg"
        string_val: "C:/Users/rizwan.asif/Desktop/projects/SfMLearner/formatted_mars_data/12119.jpg"
        string_val: "C:/Users/rizwan.asif/Desktop/projects/SfMLearner/formatted_mars_data/1126.jpg"
        string_val: "C:/Users/rizwan.asif/Desktop/projects/SfMLearner/formatted_mars_data/12192.jpg"
        string_val: "C:/Users/rizwan.asif/Desktop/projects/SfMLearner/formatted_mars_data/11761.jpg"
        string_val: "C:/Users/rizwan.asif/Desktop/projects/SfMLearner/formatted_mars_data/11031.jpg"
        string_val: "C:/Users/rizwan.asif/Desktop/projects/SfMLearner/formatted_mars_data/11825.jpg"
        string_val: "C:/Users/rizwan.asif/Desktop/projects/SfMLearner/formatted_mars_data/10869.jpg"
        string_val: "C:/Users/rizwan.asif/Desktop/projects/SfMLearner/formatted_mars_data/10765.jpg"
        string_val: "C:/Users/rizwan.asif/Desktop/projects/SfMLearner/formatted_mars_data/10033.jpg"
        string_val: "C:/Users/rizwan.asif/Desktop/projects/SfMLearner/formatted_mars_data/10976.jpg"
        string_val: "C:/Users/rizwan.asif/Desktop/projects/SfMLearner/formatted_mars_data/10018.jpg"
        string_val: "C:/Users/rizwan.asif/Desktop/projects/SfMLearner/formatted_mars_data/10285.jpg"
        string_val: "C:/Users/rizwan.asif/Desktop/projects/SfMLearner/formatted_mars_data/10716.jpg"
        string_val: "C:/Users/rizwan.asif/Desktop/projects/SfMLearner/formatted_mars_data/11927.jpg"
        string_val: "C:/Users/rizwan.asif/Desktop/projects/SfMLearner/formatted_mars_data/10129.jpg"
        string_val: "C:/Users/rizwan.asif/Desktop/projects/SfMLearner/formatted_mars_data/11783.jpg"
        string_val: "C:/Users/rizwan.asif/Desktop/projects/SfMLearner/formatted_mars_data/11419.jpg"
        string_val: "C:/Users/rizwan.asif/Desktop/projects/SfMLearner/formatted_mars_data/11092.jpg"
        string_val: "C:/Users/rizwan.asif/Desktop/projects/SfMLearner/formatted_mars_data/10907.jpg"
        string_val: "C:/Users/rizwan.asif/Desktop/projects/SfMLearner/formatted_mars_data/11610.jpg"
        string_val: "C:/Users/rizwan.asif/Desktop/projects/SfMLearner/formatted_mars_data/11534.jpg"
        string_val: "C:/Users/rizwan.asif/Desktop/projects/SfMLearner/formatted_mars_data/10661.jpg"
        string_val: "C:/Users/rizwan.asif/Desktop/projects/SfMLearner/formatted_mars_data/12636.jpg"
        string_val: "C:/Users/rizwan.asif/Desktop/projects/SfMLearner/formatted_mars_data/11870.jpg"
        string_val: "C:/Users/rizwan.asif/Desktop/projects/SfMLearner/formatted_mars_data/10548.jpg"
        string_val: "C:/Users/rizwan.asif/Desktop/projects/SfMLearner/formatted_mars_data/11554.jpg"
        string_val: "C:/Users/rizwan.asif/Desktop/projects/SfMLearner/formatted_mars_data/11067.jpg"
        string_val: "C:/Users/rizwan.asif/Desktop/projects/SfMLearner/formatted_mars_data/10638.jpg"
        string_val: "C:/Users/rizwan.asif/Desktop/projects/SfMLearner/formatted_mars_data/12565.jpg"
        string_val: "C:/Users/rizwan.asif/Desktop/projects/SfMLearner/formatted_mars_data/10948.jpg"
        string_val: "C:/Users/rizwan.asif/Desktop/projects/SfMLearner/formatted_mars_data/1163.jpg"
        string_val: "C:/Users/rizwan.asif/Desktop/projects/SfMLearner/formatted_mars_data/11506.jpg"
        string_val: "C:/Users/rizwan.asif/Desktop/projects/SfMLearner/formatted_mars_data/10824.jpg"
        string_val: "C:/Users/rizwan.asif/Desktop/projects/SfMLearner/formatted_mars_data/10816.jpg"
        string_val: "C:/Users/rizwan.asif/Desktop/projects/SfMLearner/formatted_mars_data/10252.jpg"
        string_val: "C:/Users/rizwan.asif/Desktop/projects/SfMLearner/formatted_mars_data/10063.jpg"
        string_val: "C:/Users/rizwan.asif/Desktop/projects/SfMLearner/formatted_mars_data/10346.jpg"
        string_val: "C:/Users/rizwan.asif/Desktop/projects/SfMLearner/formatted_mars_data/10322.jpg"
        string_val: "C:/Users/rizwan.asif/Desktop/projects/SfMLearner/formatted_mars_data/11133.jpg"
        string_val: "C:/Users/rizwan.asif/Desktop/projects/SfMLearner/formatted_mars_data/10385.jpg"
        string_val: "C:/Users/rizwan.asif/Desktop/projects/SfMLearner/formatted_mars_data/11339.jpg"
        string_val: "C:/Users/rizwan.asif/Desktop/projects/SfMLearner/formatted_mars_data/1049.jpg"
        string_val: "C:/Users/rizwan.asif/Desktop/projects/SfMLearner/formatted_mars_data/10566.jpg"
        string_val: "C:/Users/rizwan.asif/Desktop/projects/SfMLearner/formatted_mars_data/11177.jpg"
        string_val: "C:/Users/rizwan.asif/Desktop/projects/SfMLearner/formatted_mars_data/1200.jpg"
        string_val: "C:/Users/rizwan.asif/Desktop/projects/SfMLearner/formatted_mars_data/11827.jpg"
        string_val: "C:/Users/rizwan.asif/Desktop/projects/SfMLearner/formatted_mars_data/10015.jpg"
        string_val: "C:/Users/rizwan.asif/Desktop/projects/SfMLearner/formatted_mars_data/12318.jpg"
        string_val: "C:/Users/rizwan.asif/Desktop/projects/SfMLearner/formatted_mars_data/10680.jpg"
        string_val: "C:/Users/rizwan.asif/Desktop/projects/SfMLearner/formatted_mars_data/10991.jpg"
        string_val: "C:/Users/rizwan.asif/Desktop/projects/SfMLearner/formatted_mars_data/10194.jpg"
        string_val: "C:/Users/rizwan.asif/Desktop/projects/SfMLearner/formatted_mars_data/10753.jpg"
        string_val: "C:/Users/rizwan.asif/Desktop/projects/SfMLearner/formatted_mars_data/12127.jpg"
        string_val: "C:/Users/rizwan.asif/Desktop/projects/SfMLearner/formatted_mars_data/12210.jpg"
        string_val: "C:/Users/rizwan.asif/Desktop/projects/SfMLearner/formatted_mars_data/12455.jpg"
        string_val: "C:/Users/rizwan.asif/Desktop/projects/SfMLearner/formatted_mars_data/11205.jpg"
        string_val: "C:/Users/rizwan.asif/Desktop/projects/SfMLearner/formatted_mars_data/11538.jpg"
        string_val: "C:/Users/rizwan.asif/Desktop/projects/SfMLearner/formatted_mars_data/10161.jpg"
        string_val: "C:/Users/rizwan.asif/Desktop/projects/SfMLearner/formatted_mars_data/11346.jpg"
        string_val: "C:/Users/rizwan.asif/Desktop/projects/SfMLearner/formatted_mars_data/10995.jpg"
        string_val: "C:/Users/rizwan.asif/Desktop/projects/SfMLearner/formatted_mars_data/1052.jpg"
        string_val: "C:/Users/rizwan.asif/Desktop/projects/SfMLearner/formatted_mars_data/10655.jpg"
        string_val: "C:/Users/rizwan.asif/Desktop/projects/SfMLearner/formatted_mars_data/11129.jpg"
        string_val: "C:/Users/rizwan.asif/Desktop/projects/SfMLearner/formatted_mars_data/12022.jpg"
        string_val: "C:/Users/rizwan.asif/Desktop/projects/SfMLearner/formatted_mars_data/1108.jpg"
        string_val: "C:/Users/rizwan.asif/Desktop/projects/SfMLearner/formatted_mars_data/10806.jpg"
        string_val: "C:/Users/rizwan.asif/Desktop/projects/SfMLearner/formatted_mars_data/11669.jpg"
        string_val: "C:/Users/rizwan.asif/Desktop/projects/SfMLearner/formatted_mars_data/10990.jpg"
        string_val: "C:/Users/rizwan.asif/Desktop/projects/SfMLearner/formatted_mars_data/11318.jpg"
        string_val: "C:/Users/rizwan.asif/Desktop/projects/SfMLearner/formatted_mars_data/11557.jpg"
        string_val: "C:/Users/rizwan.asif/Desktop/projects/SfMLearner/formatted_mars_data/12017.jpg"
        string_val: "C:/Users/rizwan.asif/Desktop/projects/SfMLearner/formatted_mars_data/11505.jpg"
        string_val: "C:/Users/rizwan.asif/Desktop/projects/SfMLearner/formatted_mars_data/12255.jpg"
        string_val: "C:/Users/rizwan.asif/Desktop/projects/SfMLearner/formatted_mars_data/12307.jpg"
        string_val: "C:/Users/rizwan.asif/Desktop/projects/SfMLearner/formatted_mars_data/10099.jpg"
        string_val: "C:/Users/rizwan.asif/Desktop/projects/SfMLearner/formatted_mars_data/11112.jpg"
        string_val: "C:/Users/rizwan.asif/Desktop/projects/SfMLearner/formatted_mars_data/10644.jpg"
        string_val: "C:/Users/rizwan.asif/Desktop/projects/SfMLearner/formatted_mars_data/11561.jpg"
        string_val: "C:/Users/rizwan.asif/Desktop/projects/SfMLearner/formatted_mars_data/1177.jpg"
        string_val: "C:/Users/rizwan.asif/Desktop/projects/SfMLearner/formatted_mars_data/11231.jpg"
        string_val: "C:/Users/rizwan.asif/Desktop/projects/SfMLearner/formatted_mars_data/1167.jpg"
        string_val: "C:/Users/rizwan.asif/Desktop/projects/SfMLearner/formatted_mars_data/11024.jpg"
…
  input: "report_uninitialized_variables/IsVariableInitialized_1"
  input: "report_uninitialized_variables/IsVariableInitialized_2"
  input: "report_uninitialized_variables/IsVariableInitialized_3"
  input: "report_uninitialized_variables/IsVariableInitialized_4"
  input: "report_uninitialized_variables/IsVariableInitialized_5"
  input: "report_uninitialized_variables/IsVariableInitialized_6"
  input: "report_uninitialized_variables/IsVariableInitialized_7"
  input: "report_uninitialized_variables/IsVariableInitialized_8"
  input: "report_uninitialized_variables/IsVariableInitialized_9"
  input: "report_uninitialized_variables/IsVariableInitialized_10"
  input: "report_uninitialized_variables/IsVariableInitialized_11"
  input: "report_uninitialized_variables/IsVariableInitialized_12"
  input: "report_uninitialized_variables/IsVariableInitialized_13"
  input: "report_uninitialized_variables/IsVariableInitialized_14"
  input: "report_uninitialized_variables/IsVariableInitialized_15"
  input: "report_uninitialized_variables/IsVariableInitialized_16"
  input: "report_uninitialized_variables/IsVariableInitialized_17"
  input: "report_uninitialized_variables/IsVariableInitialized_18"
  input: "report_uninitialized_variables/IsVariableInitialized_19"
  input: "report_uninitialized_variables/IsVariableInitialized_20"
  input: "report_uninitialized_variables/IsVariableInitialized_21"
  input: "report_uninitialized_variables/IsVariableInitialized_22"
  input: "report_uninitialized_variables/IsVariableInitialized_23"
  input: "report_uninitialized_variables/IsVariableInitialized_24"
  input: "report_uninitialized_variables/IsVariableInitialized_25"
  input: "report_uninitialized_variables/IsVariableInitialized_26"
  input: "report_uninitialized_variables/IsVariableInitialized_27"
  input: "report_uninitialized_variables/IsVariableInitialized_28"
  input: "report_uninitialized_variables/IsVariableInitialized_29"
  input: "report_uninitialized_variables/IsVariableInitialized_30"
  input: "report_uninitialized_variables/IsVariableInitialized_31"
  input: "report_uninitialized_variables/IsVariableInitialized_32"
  input: "report_uninitialized_variables/IsVariableInitialized_33"
  input: "report_uninitialized_variables/IsVariableInitialized_34"
  input: "report_uninitialized_variables/IsVariableInitialized_35"
  input: "report_uninitialized_variables/IsVariableInitialized_36"
  input: "report_uninitialized_variables/IsVariableInitialized_37"
  input: "report_uninitialized_variables/IsVariableInitialized_38"
  input: "report_uninitialized_variables/IsVariableInitialized_39"
  input: "report_uninitialized_variables/IsVariableInitialized_40"
  input: "report_uninitialized_variables/IsVariableInitialized_41"
  input: "report_uninitialized_variables/IsVariableInitialized_42"
  input: "report_uninitialized_variables/IsVariableInitialized_43"
  input: "report_uninitialized_variables/IsVariableInitialized_44"
  input: "report_uninitialized_variables/IsVariableInitialized_45"
  input: "report_uninitialized_variables/IsVariableInitialized_46"
  input: "report_uninitialized_variables/IsVariableInitialized_47"
  input: "report_uninitialized_variables/IsVariableInitialized_48"
  input: "report_uninitialized_variables/IsVariableInitialized_49"
  input: "report_uninitialized_variables/IsVariableInitialized_50"
  input: "report_uninitialized_variables/IsVariableInitialized_51"
  input: "report_uninitialized_variables/IsVariableInitialized_52"
  input: "report_uninitialized_variables/IsVariableInitialized_53"
  input: "report_uninitialized_variables/IsVariableInitialized_54"
  input: "report_uninitialized_variables/IsVariableInitialized_55"
  input: "report_uninitialized_variables/IsVariableInitialized_56"
  input: "report_uninitialized_variables/IsVariableInitialized_57"
  input: "report_uninitialized_variables/IsVariableInitialized_58"
  input: "report_uninitialized_variables/IsVariableInitialized_59"
  input: "report_uninitialized_variables/IsVariableInitialized_60"
  input: "report_uninitialized_variables/IsVariableInitialized_61"
  input: "report_uninitialized_variables/IsVariableInitialized_62"
  input: "report_uninitialized_variables/IsVariableInitialized_63"
  input: "report_uninitialized_variables/IsVariableInitialized_64"
  input: "report_uninitialized_variables/IsVariableInitialized_65"
  input: "report_uninitialized_variables/IsVariableInitialized_66"
  input: "report_uninitialized_variables/IsVariableInitialized_67"
  input: "report_uninitialized_variables/IsVariableInitialized_68"
  input: "report_uninitialized_variables/IsVariableInitialized_69"
  input: "report_uninitialized_variables/IsVariableInitialized_70"
  input: "report_uninitialized_variables/IsVariableInitialized_71"
  input: "report_uninitialized_variables/IsVariableInitialized_72"
  input: "report_uninitialized_variables/IsVariableInitialized_73"
  input: "report_uninitialized_variables/IsVariableInitialized_74"
  input: "report_uninitialized_variables/IsVariableInitialized_75"
  input: "report_uninitialized_variables/IsVariableInitialized_76"
  input: "report_uninitialized_variables/IsVariableInitialized_77"
  input: "report_uninitialized_variables/IsVariableInitialized_78"
  input: "report_uninitialized_variables/IsVariableInitialized_79"
  input: "report_uninitialized_variables/IsVariableInitialized_80"
  input: "report_uninitialized_variables/IsVariableInitialized_81"
  input: "report_uninitialized_variables/IsVariableInitialized_82"
  input: "report_uninitialized_variables/IsVariableInitialized_83"
  input: "report_uninitialized_variables/IsVariableInitialized_84"
  input: "report_uninitialized_variables/IsVariableInitialized_85"
  input: "report_uninitialized_variables/IsVariableInitialized_86"
  input: "report_uninitialized_variables/IsVariableInitialized_87"
  input: "report_uninitialized_variables/IsVariableInitialized_88"
  input: "report_uninitialized_variables/IsVariableInitialized_89"
  input: "report_uninitialized_variables/IsVariableInitialized_90"
  input: "report_uninitialized_variables/IsVariableInitialized_91"
  input: "report_uninitialized_variables/IsVariableInitialized_92"
  input: "report_uninitialized_variables/IsVariableInitialized_93"
  input: "report_uninitialized_variables/IsVariableInitialized_94"
  input: "report_uninitialized_variables/IsVariableInitialized_95"
  input: "report_uninitialized_variables/IsVariableInitialized_96"
  input: "report_uninitialized_variables/IsVariableInitialized_97"
  input: "report_uninitialized_variables/IsVariableInitialized_98"
  input: "report_uninitialized_variables/IsVariableInitialized_99"
  input: "report_uninitialized_variables/IsVariableInitialized_100"
  input: "report_uninitialized_variables/IsVariableInitialized_101"
  input: "report_uninitialized_variables/IsVariableInitialized_102"
  input: "report_uninitialized_variables/IsVariableInitialized_103"
  input: "report_uninitialized_variables/IsVariableInitialized_104"
  input: "report_uninitialized_variables/IsVariableInitialized_105"
  input: "report_uninitialized_variables/IsVariableInitialized_106"
  input: "report_uninitialized_variables/IsVariableInitialized_107"
  input: "report_uninitialized_variables/IsVariableInitialized_108"
  input: "report_uninitialized_variables/IsVariableInitialized_109"
  input: "report_uninitialized_variables/IsVariableInitialized_110"
  input: "report_uninitialized_variables/IsVariableInitialized_111"
  input: "report_uninitialized_variables/IsVariableInitialized_112"
  input: "report_uninitialized_variables/IsVariableInitialized_113"
  input: "report_uninitialized_variables/IsVariableInitialized_114"
  input: "report_uninitialized_variables/IsVariableInitialized_115"
  input: "report_uninitialized_variables/IsVariableInitialized_116"
  input: "report_uninitialized_variables/IsVariableInitialized_117"
  input: "report_uninitialized_variables/IsVariableInitialized_118"
  input: "report_uninitialized_variables/IsVariableInitialized_119"
  input: "report_uninitialized_variables/IsVariableInitialized_120"
  input: "report_uninitialized_variables/IsVariableInitialized_121"
  input: "report_uninitialized_variables/IsVariableInitialized_122"
  input: "report_uninitialized_variables/IsVariableInitialized_123"
  input: "report_uninitialized_variables/IsVariableInitialized_124"
  input: "report_uninitialized_variables/IsVariableInitialized_125"
  input: "report_uninitialized_variables/IsVariableInitialized_126"
  input: "report_uninitialized_variables/IsVariableInitialized_127"
  input: "report_uninitialized_variables/IsVariableInitialized_128"
  input: "report_uninitialized_variables/IsVariableInitialized_129"
  input: "report_uninitialized_variables/IsVariableInitialized_130"
  input: "report_uninitialized_variables/IsVariableInitialized_131"
  input: "report_uninitialized_variables/IsVariableInitialized_132"
  input: "report_uninitialized_variables/IsVariableInitialized_133"
  input: "report_uninitialized_variables/IsVariableInitialized_134"
  input: "report_uninitialized_variables/IsVariableInitialized_135"
  input: "report_uninitialized_variables/IsVariableInitialized_136"
  input: "report_uninitialized_variables/IsVariableInitialized_137"
  input: "report_uninitialized_variables/IsVariableInitialized_138"
  input: "report_uninitialized_variables/IsVariableInitialized_139"
  input: "report_uninitialized_variables/IsVariableInitialized_140"
  input: "report_uninitialized_variables/IsVariableInitialized_141"
  input: "report_uninitialized_variables/IsVariableInitialized_142"
  input: "report_uninitialized_variables/IsVariableInitialized_143"
  input: "report_uninitialized_variables/IsVariableInitialized_144"
  input: "report_uninitialized_variables/IsVariableInitialized_145"
  input: "report_uninitialized_variables/IsVariableInitialized_146"
  input: "report_uninitialized_variables/IsVariableInitialized_147"
  input: "report_uninitialized_variables/IsVariableInitialized_148"
  input: "report_uninitialized_variables/IsVariableInitialized_149"
  input: "report_uninitialized_variables/IsVariableInitialized_150"
  input: "report_uninitialized_variables/IsVariableInitialized_151"
  input: "report_uninitialized_variables/IsVariableInitialized_152"
  input: "report_uninitialized_variables/IsVariableInitialized_153"
  input: "report_uninitialized_variables/IsVariableInitialized_154"
  input: "report_uninitialized_variables/IsVariableInitialized_155"
  input: "report_uninitialized_variables/IsVariableInitialized_156"
  input: "report_uninitialized_variables/IsVariableInitialized_157"
  input: "report_uninitialized_variables/IsVariableInitialized_158"
  input: "report_uninitialized_variables/IsVariableInitialized_159"
  input: "report_uninitialized_variables/IsVariableInitialized_160"
  input: "report_uninitialized_variables/IsVariableInitialized_161"
  input: "report_uninitialized_variables/IsVariableInitialized_162"
  input: "report_uninitialized_variables/IsVariableInitialized_163"
  input: "report_uninitialized_variables/IsVariableInitialized_164"
  input: "report_uninitialized_variables/IsVariableInitialized_165"
  input: "report_uninitialized_variables/IsVariableInitialized_166"
  input: "report_uninitialized_variables/IsVariableInitialized_167"
  input: "report_uninitialized_variables/IsVariableInitialized_168"
  input: "report_uninitialized_variables/IsVariableInitialized_169"
  input: "report_uninitialized_variables/IsVariableInitialized_170"
  input: "report_uninitialized_variables/IsVariableInitialized_171"
  input: "report_uninitialized_variables/IsVariableInitialized_172"
  input: "report_uninitialized_variables/IsVariableInitialized_173"
  input: "report_uninitialized_variables/IsVariableInitialized_174"
  input: "report_uninitialized_variables/IsVariableInitialized_175"
  input: "report_uninitialized_variables/IsVariableInitialized_176"
  input: "report_uninitialized_variables/IsVariableInitialized_177"
  input: "report_uninitialized_variables/IsVariableInitialized_178"
  input: "report_uninitialized_variables/IsVariableInitialized_179"
  input: "report_uninitialized_variables/IsVariableInitialized_180"
  input: "report_uninitialized_variables/IsVariableInitialized_181"
  input: "report_uninitialized_variables/IsVariableInitialized_182"
  input: "report_uninitialized_variables/IsVariableInitialized_183"
  input: "report_uninitialized_variables/IsVariableInitialized_184"
  input: "report_uninitialized_variables/IsVariableInitialized_185"
  input: "report_uninitialized_variables/IsVariableInitialized_186"
  input: "report_uninitialized_variables/IsVariableInitialized_187"
  input: "report_uninitialized_variables/IsVariableInitialized_188"
  input: "report_uninitialized_variables/IsVariableInitialized_189"
  input: "report_uninitialized_variables/IsVariableInitialized_190"
  input: "report_uninitialized_variables/IsVariableInitialized_191"
  input: "report_uninitialized_variables/IsVariableInitialized_192"
  input: "report_uninitialized_variables/IsVariableInitialized_193"
  input: "report_uninitialized_variables/IsVariableInitialized_194"
  input: "report_uninitialized_variables/IsVariableInitialized_195"
  device: "/device:CPU:0"
  attr {
    key: "N"
    value {
      i: 196
    }
  }
  attr {
    key: "T"
    value {
      type: DT_BOOL
    }
  }
  attr {
    key: "_output_shapes"
    value {
      list {
        shape {
          dim {
            size: 196
          }
        }
      }
    }
  }
  attr {
    key: "axis"
    value {
      i: 0
    }
  }
}
node {
  name: "report_uninitialized_variables/LogicalNot"
  op: "LogicalNot"
  input: "report_uninitialized_variables/stack"
  device: "/device:CPU:0"
  attr {
    key: "_output_shapes"
    value {
      list {
        shape {
          dim {
            size: 196
          }
        }
      }
    }
  }
}
node {
  name: "report_uninitialized_variables/Const"
  op: "Const"
  device: "/device:CPU:0"
  attr {
    key: "_output_shapes"
    value {
      list {
        shape {
          dim {
            size: 196
          }
        }
      }
    }
  }
  attr {
    key: "dtype"
    value {
      type: DT_STRING
    }
  }
  attr {
    key: "value"
    value {
      tensor {
        dtype: DT_STRING
        tensor_shape {
          dim {
            size: 196
          }
        }
        string_val: "depth_net/cnv1/weights"
        string_val: "depth_net/cnv1/biases"
        string_val: "depth_net/cnv1b/weights"
        string_val: "depth_net/cnv1b/biases"
        string_val: "depth_net/cnv2/weights"
        string_val: "depth_net/cnv2/biases"
        string_val: "depth_net/cnv2b/weights"
        string_val: "depth_net/cnv2b/biases"
        string_val: "depth_net/cnv3/weights"
        string_val: "depth_net/cnv3/biases"
        string_val: "depth_net/cnv3b/weights"
        string_val: "depth_net/cnv3b/biases"
        string_val: "depth_net/cnv4/weights"
        string_val: "depth_net/cnv4/biases"
        string_val: "depth_net/cnv4b/weights"
        string_val: "depth_net/cnv4b/biases"
        string_val: "depth_net/cnv5/weights"
        string_val: "depth_net/cnv5/biases"
        string_val: "depth_net/cnv5b/weights"
        string_val: "depth_net/cnv5b/biases"
        string_val: "depth_net/cnv6/weights"
        string_val: "depth_net/cnv6/biases"
        string_val: "depth_net/cnv6b/weights"
        string_val: "depth_net/cnv6b/biases"
        string_val: "depth_net/cnv7/weights"
        string_val: "depth_net/cnv7/biases"
        string_val: "depth_net/cnv7b/weights"
        string_val: "depth_net/cnv7b/biases"
        string_val: "depth_net/upcnv7/weights"
        string_val: "depth_net/upcnv7/biases"
        string_val: "depth_net/icnv7/weights"
        string_val: "depth_net/icnv7/biases"
        string_val: "depth_net/upcnv6/weights"
        string_val: "depth_net/upcnv6/biases"
        string_val: "depth_net/icnv6/weights"
        string_val: "depth_net/icnv6/biases"
        string_val: "depth_net/upcnv5/weights"
        string_val: "depth_net/upcnv5/biases"
        string_val: "depth_net/icnv5/weights"
        string_val: "depth_net/icnv5/biases"
        string_val: "depth_net/upcnv4/weights"
        string_val: "depth_net/upcnv4/biases"
        string_val: "depth_net/icnv4/weights"
        string_val: "depth_net/icnv4/biases"
        string_val: "depth_net/disp4/weights"
        string_val: "depth_net/disp4/biases"
        string_val: "depth_net/upcnv3/weights"
        string_val: "depth_net/upcnv3/biases"
        string_val: "depth_net/icnv3/weights"
        string_val: "depth_net/icnv3/biases"
        string_val: "depth_net/disp3/weights"
        string_val: "depth_net/disp3/biases"
        string_val: "depth_net/upcnv2/weights"
        string_val: "depth_net/upcnv2/biases"
        string_val: "depth_net/icnv2/weights"
        string_val: "depth_net/icnv2/biases"
        string_val: "depth_net/disp2/weights"
        string_val: "depth_net/disp2/biases"
        string_val: "depth_net/upcnv1/weights"
        string_val: "depth_net/upcnv1/biases"
        string_val: "depth_net/icnv1/weights"
        string_val: "depth_net/icnv1/biases"
        string_val: "depth_net/disp1/weights"
        string_val: "depth_net/disp1/biases"
        string_val: "global_step"
        string_val: "train_op/beta1_power"
        string_val: "train_op/beta2_power"
        string_val: "depth_net/cnv1/weights/Adam"
        string_val: "depth_net/cnv1/weights/Adam_1"
        string_val: "depth_net/cnv1/biases/Adam"
        string_val: "depth_net/cnv1/biases/Adam_1"
        string_val: "depth_net/cnv1b/weights/Adam"
        string_val: "depth_net/cnv1b/weights/Adam_1"
        string_val: "depth_net/cnv1b/biases/Adam"
        string_val: "depth_net/cnv1b/biases/Adam_1"
        string_val: "depth_net/cnv2/weights/Adam"
        string_val: "depth_net/cnv2/weights/Adam_1"
        string_val: "depth_net/cnv2/biases/Adam"
        string_val: "depth_net/cnv2/biases/Adam_1"
        string_val: "depth_net/cnv2b/weights/Adam"
        string_val: "depth_net/cnv2b/weights/Adam_1"
        string_val: "depth_net/cnv2b/biases/Adam"
        string_val: "depth_net/cnv2b/biases/Adam_1"
        string_val: "depth_net/cnv3/weights/Adam"
        string_val: "depth_net/cnv3/weights/Adam_1"
        string_val: "depth_net/cnv3/biases/Adam"
        string_val: "depth_net/cnv3/biases/Adam_1"
        string_val: "depth_net/cnv3b/weights/Adam"
        string_val: "depth_net/cnv3b/weights/Adam_1"
        string_val: "depth_net/cnv3b/biases/Adam"
        string_val: "depth_net/cnv3b/biases/Adam_1"
        string_val: "depth_net/cnv4/weights/Adam"
        string_val: "depth_net/cnv4/weights/Adam_1"
        string_val: "depth_net/cnv4/biases/Adam"
        string_val: "depth_net/cnv4/biases/Adam_1"
        string_val: "depth_net/cnv4b/weights/Adam"
        string_val: "depth_net/cnv4b/weights/Adam_1"
        string_val: "depth_net/cnv4b/biases/Adam"
        string_val: "depth_net/cnv4b/biases/Adam_1"
        string_val: "depth_net/cnv5/weights/Adam"
        string_val: "depth_net/cnv5/weights/Adam_1"
        string_val: "depth_net/cnv5/biases/Adam"
        string_val: "depth_net/cnv5/biases/Adam_1"
        string_val: "depth_net/cnv5b/weights/Adam"
        string_val: "depth_net/cnv5b/weights/Adam_1"
        string_val: "depth_net/cnv5b/biases/Adam"
        string_val: "depth_net/cnv5b/biases/Adam_1"
        string_val: "depth_net/cnv6/weights/Adam"
        string_val: "depth_net/cnv6/weights/Adam_1"
        string_val: "depth_net/cnv6/biases/Adam"
        string_val: "depth_net/cnv6/biases/Adam_1"
        string_val: "depth_net/cnv6b/weights/Adam"
        string_val: "depth_net/cnv6b/weights/Adam_1"
        string_val: "depth_net/cnv6b/biases/Adam"
        string_val: "depth_net/cnv6b/biases/Adam_1"
        string_val: "depth_net/cnv7/weights/Adam"
        string_val: "depth_net/cnv7/weights/Adam_1"
        string_val: "depth_net/cnv7/biases/Adam"
        string_val: "depth_net/cnv7/biases/Adam_1"
        string_val: "depth_net/cnv7b/weights/Adam"
        string_val: "depth_net/cnv7b/weights/Adam_1"
        string_val: "depth_net/cnv7b/biases/Adam"
        string_val: "depth_net/cnv7b/biases/Adam_1"
        string_val: "depth_net/upcnv7/weights/Adam"
        string_val: "depth_net/upcnv7/weights/Adam_1"
        string_val: "depth_net/upcnv7/biases/Adam"
        string_val: "depth_net/upcnv7/biases/Adam_1"
        string_val: "depth_net/icnv7/weights/Adam"
        string_val: "depth_net/icnv7/weights/Adam_1"
        string_val: "depth_net/icnv7/biases/Adam"
        string_val: "depth_net/icnv7/biases/Adam_1"
        string_val: "depth_net/upcnv6/weights/Adam"
        string_val: "depth_net/upcnv6/weights/Adam_1"
        string_val: "depth_net/upcnv6/biases/Adam"
        string_val: "depth_net/upcnv6/biases/Adam_1"
        string_val: "depth_net/icnv6/weights/Adam"
        string_val: "depth_net/icnv6/weights/Adam_1"
        string_val: "depth_net/icnv6/biases/Adam"
        string_val: "depth_net/icnv6/biases/Adam_1"
        string_val: "depth_net/upcnv5/weights/Adam"
        string_val: "depth_net/upcnv5/weights/Adam_1"
        string_val: "depth_net/upcnv5/biases/Adam"
        string_val: "depth_net/upcnv5/biases/Adam_1"
        string_val: "depth_net/icnv5/weights/Adam"
        string_val: "depth_net/icnv5/weights/Adam_1"
        string_val: "depth_net/icnv5/biases/Adam"
        string_val: "depth_net/icnv5/biases/Adam_1"
        string_val: "depth_net/upcnv4/weights/Adam"
        string_val: "depth_net/upcnv4/weights/Adam_1"
        string_val: "depth_net/upcnv4/biases/Adam"
        string_val: "depth_net/upcnv4/biases/Adam_1"
        string_val: "depth_net/icnv4/weights/Adam"
        string_val: "depth_net/icnv4/weights/Adam_1"
        string_val: "depth_net/icnv4/biases/Adam"
        string_val: "depth_net/icnv4/biases/Adam_1"
        string_val: "depth_net/disp4/weights/Adam"
        string_val: "depth_net/disp4/weights/Adam_1"
        string_val: "depth_net/disp4/biases/Adam"
        string_val: "depth_net/disp4/biases/Adam_1"
        string_val: "depth_net/upcnv3/weights/Adam"
        string_val: "depth_net/upcnv3/weights/Adam_1"
        string_val: "depth_net/upcnv3/biases/Adam"
        string_val: "depth_net/upcnv3/biases/Adam_1"
        string_val: "depth_net/icnv3/weights/Adam"
        string_val: "depth_net/icnv3/weights/Adam_1"
        string_val: "depth_net/icnv3/biases/Adam"
        string_val: "depth_net/icnv3/biases/Adam_1"
        string_val: "depth_net/disp3/weights/Adam"
        string_val: "depth_net/disp3/weights/Adam_1"
        string_val: "depth_net/disp3/biases/Adam"
        string_val: "depth_net/disp3/biases/Adam_1"
        string_val: "depth_net/upcnv2/weights/Adam"
        string_val: "depth_net/upcnv2/weights/Adam_1"
        string_val: "depth_net/upcnv2/biases/Adam"
        string_val: "depth_net/upcnv2/biases/Adam_1"
        string_val: "depth_net/icnv2/weights/Adam"
        string_val: "depth_net/icnv2/weights/Adam_1"
        string_val: "depth_net/icnv2/biases/Adam"
        string_val: "depth_net/icnv2/biases/Adam_1"
        string_val: "depth_net/disp2/weights/Adam"
        string_val: "depth_net/disp2/weights/Adam_1"
        string_val: "depth_net/disp2/biases/Adam"
        string_val: "depth_net/disp2/biases/Adam_1"
        string_val: "depth_net/upcnv1/weights/Adam"
        string_val: "depth_net/upcnv1/weights/Adam_1"
        string_val: "depth_net/upcnv1/biases/Adam"
        string_val: "depth_net/upcnv1/biases/Adam_1"
        string_val: "depth_net/icnv1/weights/Adam"
        string_val: "depth_net/icnv1/weights/Adam_1"
        string_val: "depth_net/icnv1/biases/Adam"
        string_val: "depth_net/icnv1/biases/Adam_1"
        string_val: "depth_net/disp1/weights/Adam"
        string_val: "depth_net/disp1/weights/Adam_1"
        string_val: "depth_net/disp1/biases/Adam"
        string_val: "depth_net/disp1/biases/Adam_1"
        string_val: "train_op/global_step"
      }
    }
  }
}
node {
  name: "report_uninitialized_variables/boolean_mask/Shape"
  op: "Const"
  device: "/device:CPU:0"
  attr {
    key: "_output_shapes"
    value {
      list {
        shape {
          dim {
            size: 1
          }
        }
      }
    }
  }
  attr {
    key: "dtype"
    value {
      type: DT_INT32
    }
  }
  attr {
    key: "value"
    value {
      tensor {
        dtype: DT_INT32
        tensor_shape {
          dim {
            size: 1
          }
        }
        int_val: 196
      }
    }
  }
}
node {
  name: "report_uninitialized_variables/boolean_mask/strided_slice/stack"
  op: "Const"
  device: "/device:CPU:0"
  attr {
    key: "_output_shapes"
    value {
      list {
        shape {
          dim {
            size: 1
          }
        }
      }
    }
  }
  attr {
    key: "dtype"
    value {
      type: DT_INT32
    }
  }
  attr {
    key: "value"
    value {
      tensor {
        dtype: DT_INT32
        tensor_shape {
          dim {
            size: 1
          }
        }
        int_val: 0
      }
    }
  }
}
node {
  name: "report_uninitialized_variables/boolean_mask/strided_slice/stack_1"
  op: "Const"
  device: "/device:CPU:0"
  attr {
    key: "_output_shapes"
    value {
      list {
        shape {
          dim {
            size: 1
          }
        }
      }
    }
  }
  attr {
    key: "dtype"
    value {
      type: DT_INT32
    }
  }
  attr {
    key: "value"
    value {
      tensor {
        dtype: DT_INT32
        tensor_shape {
          dim {
            size: 1
          }
        }
        int_val: 1
      }
    }
  }
}
node {
  name: "report_uninitialized_variables/boolean_mask/strided_slice/stack_2"
  op: "Const"
  device: "/device:CPU:0"
  attr {
    key: "_output_shapes"
    value {
      list {
        shape {
          dim {
            size: 1
          }
        }
      }
    }
  }
  attr {
    key: "dtype"
    value {
      type: DT_INT32
    }
  }
  attr {
    key: "value"
    value {
      tensor {
        dtype: DT_INT32
        tensor_shape {
          dim {
            size: 1
          }
        }
        int_val: 1
      }
    }
  }
}
node {
  name: "report_uninitialized_variables/boolean_mask/strided_slice"
  op: "StridedSlice"
  input: "report_uninitialized_variables/boolean_mask/Shape"
  input: "report_uninitialized_variables/boolean_mask/strided_slice/stack"
  input: "report_uninitialized_variables/boolean_mask/strided_slice/stack_1"
  input: "report_uninitialized_variables/boolean_mask/strided_slice/stack_2"
  device: "/device:CPU:0"
  attr {
    key: "Index"
    value {
      type: DT_INT32
    }
  }
  attr {
    key: "T"
    value {
      type: DT_INT32
    }
  }
  attr {
    key: "_output_shapes"
    value {
      list {
        shape {
          dim {
            size: 1
          }
        }
      }
    }
  }
  attr {
    key: "begin_mask"
    value {
      i: 0
    }
  }
  attr {
    key: "ellipsis_mask"
    value {
      i: 0
    }
  }
  attr {
    key: "end_mask"
    value {
      i: 0
    }
  }
  attr {
    key: "new_axis_mask"
    value {
      i: 0
    }
  }
  attr {
    key: "shrink_axis_mask"
    value {
      i: 0
    }
  }
}
node {
  name: "report_uninitialized_variables/boolean_mask/Prod/reduction_indices"
  op: "Const"
  device: "/device:CPU:0"
  attr {
    key: "_output_shapes"
    value {
      list {
        shape {
          dim {
            size: 1
          }
        }
      }
    }
  }
  attr {
    key: "dtype"
    value {
      type: DT_INT32
    }
  }
  attr {
    key: "value"
    value {
      tensor {
        dtype: DT_INT32
        tensor_shape {
          dim {
            size: 1
          }
        }
        int_val: 0
      }
    }
  }
}
node {
  name: "report_uninitialized_variables/boolean_mask/Prod"
  op: "Prod"
  input: "report_uninitialized_variables/boolean_mask/strided_slice"
  input: "report_uninitialized_variables/boolean_mask/Prod/reduction_indices"
  device: "/device:CPU:0"
  attr {
    key: "T"
    value {
      type: DT_INT32
    }
  }
  attr {
    key: "Tidx"
    value {
      type: DT_INT32
    }
  }
  attr {
    key: "_output_shapes"
    value {
      list {
        shape {
        }
      }
    }
  }
  attr {
    key: "keep_dims"
    value {
      b: false
    }
  }
}
node {
  name: "report_uninitialized_variables/boolean_mask/Shape_1"
  op: "Const"
  device: "/device:CPU:0"
  attr {
    key: "_output_shapes"
    value {
      list {
        shape {
          dim {
            size: 1
          }
        }
      }
    }
  }
  attr {
    key: "dtype"
    value {
      type: DT_INT32
    }
  }
  attr {
    key: "value"
    value {
      tensor {
        dtype: DT_INT32
        tensor_shape {
          dim {
            size: 1
          }
        }
        int_val: 196
      }
    }
  }
}
node {
  name: "report_uninitialized_variables/boolean_mask/strided_slice_1/stack"
  op: "Const"
  device: "/device:CPU:0"
  attr {
    key: "_output_shapes"
    value {
      list {
        shape {
          dim {
            size: 1
          }
        }
      }
    }
  }
  attr {
    key: "dtype"
    value {
      type: DT_INT32
    }
  }
  attr {
    key: "value"
    value {
      tensor {
        dtype: DT_INT32
        tensor_shape {
          dim {
            size: 1
          }
        }
        int_val: 0
      }
    }
  }
}
node {
  name: "report_uninitialized_variables/boolean_mask/strided_slice_1/stack_1"
  op: "Const"
  device: "/device:CPU:0"
  attr {
    key: "_output_shapes"
    value {
      list {
        shape {
          dim {
            size: 1
          }
        }
      }
    }
  }
  attr {
    key: "dtype"
    value {
      type: DT_INT32
    }
  }
  attr {
    key: "value"
    value {
      tensor {
        dtype: DT_INT32
        tensor_shape {
          dim {
            size: 1
          }
        }
        int_val: 0
      }
    }
  }
}
node {
  name: "report_uninitialized_variables/boolean_mask/strided_slice_1/stack_2"
  op: "Const"
  device: "/device:CPU:0"
  attr {
    key: "_output_shapes"
    value {
      list {
        shape {
          dim {
            size: 1
          }
        }
      }
    }
  }
  attr {
    key: "dtype"
    value {
      type: DT_INT32
    }
  }
  attr {
    key: "value"
    value {
      tensor {
        dtype: DT_INT32
        tensor_shape {
          dim {
            size: 1
          }
        }
        int_val: 1
      }
    }
  }
}
node {
  name: "report_uninitialized_variables/boolean_mask/strided_slice_1"
  op: "StridedSlice"
  input: "report_uninitialized_variables/boolean_mask/Shape_1"
  input: "report_uninitialized_variables/boolean_mask/strided_slice_1/stack"
  input: "report_uninitialized_variables/boolean_mask/strided_slice_1/stack_1"
  input: "report_uninitialized_variables/boolean_mask/strided_slice_1/stack_2"
  device: "/device:CPU:0"
  attr {
    key: "Index"
    value {
      type: DT_INT32
    }
  }
  attr {
    key: "T"
    value {
      type: DT_INT32
    }
  }
  attr {
    key: "_output_shapes"
    value {
      list {
        shape {
          dim {
          }
        }
      }
    }
  }
  attr {
    key: "begin_mask"
    value {
      i: 1
    }
  }
  attr {
    key: "ellipsis_mask"
    value {
      i: 0
    }
  }
  attr {
    key: "end_mask"
    value {
      i: 0
    }
  }
  attr {
    key: "new_axis_mask"
    value {
      i: 0
    }
  }
  attr {
    key: "shrink_axis_mask"
    value {
      i: 0
    }
  }
}
node {
  name: "report_uninitialized_variables/boolean_mask/Shape_2"
  op: "Const"
  device: "/device:CPU:0"
  attr {
    key: "_output_shapes"
    value {
      list {
        shape {
          dim {
            size: 1
          }
        }
      }
    }
  }
  attr {
    key: "dtype"
    value {
      type: DT_INT32
    }
  }
  attr {
    key: "value"
    value {
      tensor {
        dtype: DT_INT32
        tensor_shape {
          dim {
            size: 1
          }
        }
        int_val: 196
      }
    }
  }
}
node {
  name: "report_uninitialized_variables/boolean_mask/strided_slice_2/stack"
  op: "Const"
  device: "/device:CPU:0"
  attr {
    key: "_output_shapes"
    value {
      list {
        shape {
          dim {
            size: 1
          }
        }
      }
    }
  }
  attr {
    key: "dtype"
    value {
      type: DT_INT32
    }
  }
  attr {
    key: "value"
    value {
      tensor {
        dtype: DT_INT32
        tensor_shape {
          dim {
            size: 1
          }
        }
        int_val: 1
      }
    }
  }
}
node {
  name: "report_uninitialized_variables/boolean_mask/strided_slice_2/stack_1"
  op: "Const"
  device: "/device:CPU:0"
  attr {
    key: "_output_shapes"
    value {
      list {
        shape {
          dim {
            size: 1
          }
        }
      }
    }
  }
  attr {
    key: "dtype"
    value {
      type: DT_INT32
    }
  }
  attr {
    key: "value"
    value {
      tensor {
        dtype: DT_INT32
        tensor_shape {
          dim {
            size: 1
          }
        }
        int_val: 0
      }
    }
  }
}
node {
  name: "report_uninitialized_variables/boolean_mask/strided_slice_2/stack_2"
  op: "Const"
  device: "/device:CPU:0"
  attr {
    key: "_output_shapes"
    value {
      list {
        shape {
          dim {
            size: 1
          }
        }
      }
    }
  }
  attr {
    key: "dtype"
    value {
      type: DT_INT32
    }
  }
  attr {
    key: "value"
    value {
      tensor {
        dtype: DT_INT32
        tensor_shape {
          dim {
            size: 1
          }
        }
        int_val: 1
      }
    }
  }
}
node {
  name: "report_uninitialized_variables/boolean_mask/strided_slice_2"
  op: "StridedSlice"
  input: "report_uninitialized_variables/boolean_mask/Shape_2"
  input: "report_uninitialized_variables/boolean_mask/strided_slice_2/stack"
  input: "report_uninitialized_variables/boolean_mask/strided_slice_2/stack_1"
  input: "report_uninitialized_variables/boolean_mask/strided_slice_2/stack_2"
  device: "/device:CPU:0"
  attr {
    key: "Index"
    value {
      type: DT_INT32
    }
  }
  attr {
    key: "T"
    value {
      type: DT_INT32
    }
  }
  attr {
    key: "_output_shapes"
    value {
      list {
        shape {
          dim {
          }
        }
      }
    }
  }
  attr {
    key: "begin_mask"
    value {
      i: 0
    }
  }
  attr {
    key: "ellipsis_mask"
    value {
      i: 0
    }
  }
  attr {
    key: "end_mask"
    value {
      i: 1
    }
  }
  attr {
    key: "new_axis_mask"
    value {
      i: 0
    }
  }
  attr {
    key: "shrink_axis_mask"
    value {
      i: 0
    }
  }
}
node {
  name: "report_uninitialized_variables/boolean_mask/concat/values_1"
  op: "Pack"
  input: "report_uninitialized_variables/boolean_mask/Prod"
  device: "/device:CPU:0"
  attr {
    key: "N"
    value {
      i: 1
    }
  }
  attr {
    key: "T"
    value {
      type: DT_INT32
    }
  }
  attr {
    key: "_output_shapes"
    value {
      list {
        shape {
          dim {
            size: 1
          }
        }
      }
    }
  }
  attr {
    key: "axis"
    value {
      i: 0
    }
  }
}
node {
  name: "report_uninitialized_variables/boolean_mask/concat/axis"
  op: "Const"
  device: "/device:CPU:0"
  attr {
    key: "_output_shapes"
    value {
      list {
        shape {
        }
      }
    }
  }
  attr {
    key: "dtype"
    value {
      type: DT_INT32
    }
  }
  attr {
    key: "value"
    value {
      tensor {
        dtype: DT_INT32
        tensor_shape {
        }
        int_val: 0
      }
    }
  }
}
node {
  name: "report_uninitialized_variables/boolean_mask/concat"
  op: "ConcatV2"
  input: "report_uninitialized_variables/boolean_mask/strided_slice_1"
  input: "report_uninitialized_variables/boolean_mask/concat/values_1"
  input: "report_uninitialized_variables/boolean_mask/strided_slice_2"
  input: "report_uninitialized_variables/boolean_mask/concat/axis"
  device: "/device:CPU:0"
  attr {
    key: "N"
    value {
      i: 3
    }
  }
  attr {
    key: "T"
    value {
      type: DT_INT32
    }
  }
  attr {
    key: "Tidx"
    value {
      type: DT_INT32
    }
  }
  attr {
    key: "_output_shapes"
    value {
      list {
        shape {
          dim {
            size: 1
          }
        }
      }
    }
  }
}
node {
  name: "report_uninitialized_variables/boolean_mask/Reshape"
  op: "Reshape"
  input: "report_uninitialized_variables/Const"
  input: "report_uninitialized_variables/boolean_mask/concat"
  device: "/device:CPU:0"
  attr {
    key: "T"
    value {
      type: DT_STRING
    }
  }
  attr {
    key: "Tshape"
    value {
      type: DT_INT32
    }
  }
  attr {
    key: "_output_shapes"
    value {
      list {
        shape {
          dim {
            size: 196
          }
        }
      }
    }
  }
}
node {
  name: "report_uninitialized_variables/boolean_mask/Reshape_1/shape"
  op: "Const"
  device: "/device:CPU:0"
  attr {
    key: "_output_shapes"
    value {
      list {
        shape {
          dim {
            size: 1
          }
        }
      }
    }
  }
  attr {
    key: "dtype"
    value {
      type: DT_INT32
    }
  }
  attr {
    key: "value"
    value {
      tensor {
        dtype: DT_INT32
        tensor_shape {
          dim {
            size: 1
          }
        }
        int_val: -1
      }
    }
  }
}
node {
  name: "report_uninitialized_variables/boolean_mask/Reshape_1"
  op: "Reshape"
  input: "report_uninitialized_variables/LogicalNot"
  input: "report_uninitialized_variables/boolean_mask/Reshape_1/shape"
  device: "/device:CPU:0"
  attr {
    key: "T"
    value {
      type: DT_BOOL
    }
  }
  attr {
    key: "Tshape"
    value {
      type: DT_INT32
    }
  }
  attr {
    key: "_output_shapes"
    value {
      list {
        shape {
          dim {
            size: 196
          }
        }
      }
    }
  }
}
node {
  name: "report_uninitialized_variables/boolean_mask/Where"
  op: "Where"
  input: "report_uninitialized_variables/boolean_mask/Reshape_1"
  device: "/device:CPU:0"
  attr {
    key: "T"
    value {
      type: DT_BOOL
    }
  }
  attr {
    key: "_output_shapes"
    value {
      list {
        shape {
          dim {
            size: -1
          }
          dim {
            size: 1
          }
        }
      }
    }
  }
}
node {
  name: "report_uninitialized_variables/boolean_mask/Squeeze"
  op: "Squeeze"
  input: "report_uninitialized_variables/boolean_mask/Where"
  device: "/device:CPU:0"
  attr {
    key: "T"
    value {
      type: DT_INT64
    }
  }
  attr {
    key: "_output_shapes"
    value {
      list {
        shape {
          dim {
            size: -1
          }
        }
      }
    }
  }
  attr {
    key: "squeeze_dims"
    value {
      list {
        i: 1
      }
    }
  }
}
node {
  name: "report_uninitialized_variables/boolean_mask/GatherV2/axis"
  op: "Const"
  device: "/device:CPU:0"
  attr {
    key: "_output_shapes"
    value {
      list {
        shape {
        }
      }
    }
  }
  attr {
    key: "dtype"
    value {
      type: DT_INT32
    }
  }
  attr {
    key: "value"
    value {
      tensor {
        dtype: DT_INT32
        tensor_shape {
        }
        int_val: 0
      }
    }
  }
}
node {
  name: "report_uninitialized_variables/boolean_mask/GatherV2"
  op: "GatherV2"
  input: "report_uninitialized_variables/boolean_mask/Reshape"
  input: "report_uninitialized_variables/boolean_mask/Squeeze"
  input: "report_uninitialized_variables/boolean_mask/GatherV2/axis"
  device: "/device:CPU:0"
  attr {
    key: "Taxis"
    value {
      type: DT_INT32
    }
  }
  attr {
    key: "Tindices"
    value {
      type: DT_INT64
    }
  }
  attr {
    key: "Tparams"
    value {
      type: DT_STRING
    }
  }
  attr {
    key: "_output_shapes"
    value {
      list {
        shape {
          dim {
            size: -1
          }
        }
      }
    }
  }
  attr {
    key: "batch_dims"
    value {
      i: 0
    }
  }
}
node {
  name: "init"
  op: "NoOp"
  input: "^depth_net/cnv1/biases/Adam/Assign"
  input: "^depth_net/cnv1/biases/Adam_1/Assign"
  input: "^depth_net/cnv1/biases/Assign"
  input: "^depth_net/cnv1/weights/Adam/Assign"
  input: "^depth_net/cnv1/weights/Adam_1/Assign"
  input: "^depth_net/cnv1/weights/Assign"
  input: "^depth_net/cnv1b/biases/Adam/Assign"
  input: "^depth_net/cnv1b/biases/Adam_1/Assign"
  input: "^depth_net/cnv1b/biases/Assign"
  input: "^depth_net/cnv1b/weights/Adam/Assign"
  input: "^depth_net/cnv1b/weights/Adam_1/Assign"
  input: "^depth_net/cnv1b/weights/Assign"
  input: "^depth_net/cnv2/biases/Adam/Assign"
  input: "^depth_net/cnv2/biases/Adam_1/Assign"
  input: "^depth_net/cnv2/biases/Assign"
  input: "^depth_net/cnv2/weights/Adam/Assign"
  input: "^depth_net/cnv2/weights/Adam_1/Assign"
  input: "^depth_net/cnv2/weights/Assign"
  input: "^depth_net/cnv2b/biases/Adam/Assign"
  input: "^depth_net/cnv2b/biases/Adam_1/Assign"
  input: "^depth_net/cnv2b/biases/Assign"
  input: "^depth_net/cnv2b/weights/Adam/Assign"
  input: "^depth_net/cnv2b/weights/Adam_1/Assign"
  input: "^depth_net/cnv2b/weights/Assign"
  input: "^depth_net/cnv3/biases/Adam/Assign"
  input: "^depth_net/cnv3/biases/Adam_1/Assign"
  input: "^depth_net/cnv3/biases/Assign"
  input: "^depth_net/cnv3/weights/Adam/Assign"
  input: "^depth_net/cnv3/weights/Adam_1/Assign"
  input: "^depth_net/cnv3/weights/Assign"
  input: "^depth_net/cnv3b/biases/Adam/Assign"
  input: "^depth_net/cnv3b/biases/Adam_1/Assign"
  input: "^depth_net/cnv3b/biases/Assign"
  input: "^depth_net/cnv3b/weights/Adam/Assign"
  input: "^depth_net/cnv3b/weights/Adam_1/Assign"
  input: "^depth_net/cnv3b/weights/Assign"
  input: "^depth_net/cnv4/biases/Adam/Assign"
  input: "^depth_net/cnv4/biases/Adam_1/Assign"
  input: "^depth_net/cnv4/biases/Assign"
  input: "^depth_net/cnv4/weights/Adam/Assign"
  input: "^depth_net/cnv4/weights/Adam_1/Assign"
  input: "^depth_net/cnv4/weights/Assign"
  input: "^depth_net/cnv4b/biases/Adam/Assign"
  input: "^depth_net/cnv4b/biases/Adam_1/Assign"
  input: "^depth_net/cnv4b/biases/Assign"
  input: "^depth_net/cnv4b/weights/Adam/Assign"
  input: "^depth_net/cnv4b/weights/Adam_1/Assign"
  input: "^depth_net/cnv4b/weights/Assign"
  input: "^depth_net/cnv5/biases/Adam/Assign"
  input: "^depth_net/cnv5/biases/Adam_1/Assign"
  input: "^depth_net/cnv5/biases/Assign"
  input: "^depth_net/cnv5/weights/Adam/Assign"
  input: "^depth_net/cnv5/weights/Adam_1/Assign"
  input: "^depth_net/cnv5/weights/Assign"
  input: "^depth_net/cnv5b/biases/Adam/Assign"
  input: "^depth_net/cnv5b/biases/Adam_1/Assign"
  input: "^depth_net/cnv5b/biases/Assign"
  input: "^depth_net/cnv5b/weights/Adam/Assign"
  input: "^depth_net/cnv5b/weights/Adam_1/Assign"
  input: "^depth_net/cnv5b/weights/Assign"
  input: "^depth_net/cnv6/biases/Adam/Assign"
  input: "^depth_net/cnv6/biases/Adam_1/Assign"
  input: "^depth_net/cnv6/biases/Assign"
  input: "^depth_net/cnv6/weights/Adam/Assign"
  input: "^depth_net/cnv6/weights/Adam_1/Assign"
  input: "^depth_net/cnv6/weights/Assign"
  input: "^depth_net/cnv6b/biases/Adam/Assign"
  input: "^depth_net/cnv6b/biases/Adam_1/Assign"
  input: "^depth_net/cnv6b/biases/Assign"
  input: "^depth_net/cnv6b/weights/Adam/Assign"
  input: "^depth_net/cnv6b/weights/Adam_1/Assign"
  input: "^depth_net/cnv6b/weights/Assign"
  input: "^depth_net/cnv7/biases/Adam/Assign"
  input: "^depth_net/cnv7/biases/Adam_1/Assign"
  input: "^depth_net/cnv7/biases/Assign"
  input: "^depth_net/cnv7/weights/Adam/Assign"
  input: "^depth_net/cnv7/weights/Adam_1/Assign"
  input: "^depth_net/cnv7/weights/Assign"
  input: "^depth_net/cnv7b/biases/Adam/Assign"
  input: "^depth_net/cnv7b/biases/Adam_1/Assign"
  input: "^depth_net/cnv7b/biases/Assign"
  input: "^depth_net/cnv7b/weights/Adam/Assign"
  input: "^depth_net/cnv7b/weights/Adam_1/Assign"
  input: "^depth_net/cnv7b/weights/Assign"
  input: "^depth_net/disp1/biases/Adam/Assign"
  input: "^depth_net/disp1/biases/Adam_1/Assign"
  input: "^depth_net/disp1/biases/Assign"
  input: "^depth_net/disp1/weights/Adam/Assign"
  input: "^depth_net/disp1/weights/Adam_1/Assign"
  input: "^depth_net/disp1/weights/Assign"
  input: "^depth_net/disp2/biases/Adam/Assign"
  input: "^depth_net/disp2/biases/Adam_1/Assign"
  input: "^depth_net/disp2/biases/Assign"
  input: "^depth_net/disp2/weights/Adam/Assign"
  input: "^depth_net/disp2/weights/Adam_1/Assign"
  input: "^depth_net/disp2/weights/Assign"
  input: "^depth_net/disp3/biases/Adam/Assign"
  input: "^depth_net/disp3/biases/Adam_1/Assign"
  input: "^depth_net/disp3/biases/Assign"
  input: "^depth_net/disp3/weights/Adam/Assign"
  input: "^depth_net/disp3/weights/Adam_1/Assign"
  input: "^depth_net/disp3/weights/Assign"
  input: "^depth_net/disp4/biases/Adam/Assign"
  input: "^depth_net/disp4/biases/Adam_1/Assign"
  input: "^depth_net/disp4/biases/Assign"
  input: "^depth_net/disp4/weights/Adam/Assign"
  input: "^depth_net/disp4/weights/Adam_1/Assign"
  input: "^depth_net/disp4/weights/Assign"
  input: "^depth_net/icnv1/biases/Adam/Assign"
  input: "^depth_net/icnv1/biases/Adam_1/Assign"
  input: "^depth_net/icnv1/biases/Assign"
  input: "^depth_net/icnv1/weights/Adam/Assign"
  input: "^depth_net/icnv1/weights/Adam_1/Assign"
  input: "^depth_net/icnv1/weights/Assign"
  input: "^depth_net/icnv2/biases/Adam/Assign"
  input: "^depth_net/icnv2/biases/Adam_1/Assign"
  input: "^depth_net/icnv2/biases/Assign"
  input: "^depth_net/icnv2/weights/Adam/Assign"
  input: "^depth_net/icnv2/weights/Adam_1/Assign"
  input: "^depth_net/icnv2/weights/Assign"
  input: "^depth_net/icnv3/biases/Adam/Assign"
  input: "^depth_net/icnv3/biases/Adam_1/Assign"
  input: "^depth_net/icnv3/biases/Assign"
  input: "^depth_net/icnv3/weights/Adam/Assign"
  input: "^depth_net/icnv3/weights/Adam_1/Assign"
  input: "^depth_net/icnv3/weights/Assign"
  input: "^depth_net/icnv4/biases/Adam/Assign"
  input: "^depth_net/icnv4/biases/Adam_1/Assign"
  input: "^depth_net/icnv4/biases/Assign"
  input: "^depth_net/icnv4/weights/Adam/Assign"
  input: "^depth_net/icnv4/weights/Adam_1/Assign"
  input: "^depth_net/icnv4/weights/Assign"
  input: "^depth_net/icnv5/biases/Adam/Assign"
  input: "^depth_net/icnv5/biases/Adam_1/Assign"
  input: "^depth_net/icnv5/biases/Assign"
  input: "^depth_net/icnv5/weights/Adam/Assign"
  input: "^depth_net/icnv5/weights/Adam_1/Assign"
  input: "^depth_net/icnv5/weights/Assign"
  input: "^depth_net/icnv6/biases/Adam/Assign"
  input: "^depth_net/icnv6/biases/Adam_1/Assign"
  input: "^depth_net/icnv6/biases/Assign"
  input: "^depth_net/icnv6/weights/Adam/Assign"
  input: "^depth_net/icnv6/weights/Adam_1/Assign"
  input: "^depth_net/icnv6/weights/Assign"
  input: "^depth_net/icnv7/biases/Adam/Assign"
  input: "^depth_net/icnv7/biases/Adam_1/Assign"
  input: "^depth_net/icnv7/biases/Assign"
  input: "^depth_net/icnv7/weights/Adam/Assign"
  input: "^depth_net/icnv7/weights/Adam_1/Assign"
  input: "^depth_net/icnv7/weights/Assign"
  input: "^depth_net/upcnv1/biases/Adam/Assign"
  input: "^depth_net/upcnv1/biases/Adam_1/Assign"
  input: "^depth_net/upcnv1/biases/Assign"
  input: "^depth_net/upcnv1/weights/Adam/Assign"
  input: "^depth_net/upcnv1/weights/Adam_1/Assign"
  input: "^depth_net/upcnv1/weights/Assign"
  input: "^depth_net/upcnv2/biases/Adam/Assign"
  input: "^depth_net/upcnv2/biases/Adam_1/Assign"
  input: "^depth_net/upcnv2/biases/Assign"
  input: "^depth_net/upcnv2/weights/Adam/Assign"
  input: "^depth_net/upcnv2/weights/Adam_1/Assign"
  input: "^depth_net/upcnv2/weights/Assign"
  input: "^depth_net/upcnv3/biases/Adam/Assign"
  input: "^depth_net/upcnv3/biases/Adam_1/Assign"
  input: "^depth_net/upcnv3/biases/Assign"
  input: "^depth_net/upcnv3/weights/Adam/Assign"
  input: "^depth_net/upcnv3/weights/Adam_1/Assign"
  input: "^depth_net/upcnv3/weights/Assign"
  input: "^depth_net/upcnv4/biases/Adam/Assign"
  input: "^depth_net/upcnv4/biases/Adam_1/Assign"
  input: "^depth_net/upcnv4/biases/Assign"
  input: "^depth_net/upcnv4/weights/Adam/Assign"
  input: "^depth_net/upcnv4/weights/Adam_1/Assign"
  input: "^depth_net/upcnv4/weights/Assign"
  input: "^depth_net/upcnv5/biases/Adam/Assign"
  input: "^depth_net/upcnv5/biases/Adam_1/Assign"
  input: "^depth_net/upcnv5/biases/Assign"
  input: "^depth_net/upcnv5/weights/Adam/Assign"
  input: "^depth_net/upcnv5/weights/Adam_1/Assign"
  input: "^depth_net/upcnv5/weights/Assign"
  input: "^depth_net/upcnv6/biases/Adam/Assign"
  input: "^depth_net/upcnv6/biases/Adam_1/Assign"
  input: "^depth_net/upcnv6/biases/Assign"
  input: "^depth_net/upcnv6/weights/Adam/Assign"
  input: "^depth_net/upcnv6/weights/Adam_1/Assign"
  input: "^depth_net/upcnv6/weights/Assign"
  input: "^depth_net/upcnv7/biases/Adam/Assign"
  input: "^depth_net/upcnv7/biases/Adam_1/Assign"
  input: "^depth_net/upcnv7/biases/Assign"
  input: "^depth_net/upcnv7/weights/Adam/Assign"
  input: "^depth_net/upcnv7/weights/Adam_1/Assign"
  input: "^depth_net/upcnv7/weights/Assign"
  input: "^global_step/Assign"
  input: "^train_op/beta1_power/Assign"
  input: "^train_op/beta2_power/Assign"
  input: "^train_op/global_step/Assign"
}
node {
  name: "init_1"
  op: "NoOp"
}
node {
  name: "init_all_tables"
  op: "NoOp"
}
node {
  name: "group_deps"
  op: "NoOp"
  input: "^init_1"
  input: "^init_all_tables"
}
node {
  name: "Merge/MergeSummary"
  op: "MergeSummary"
  input: "data_loading/input_producer/input_producer/fraction_of_32_full"
  input: "data_loading/batch/fraction_of_32_full"
  input: "total_loss"
  input: "smooth_loss"
  input: "scale0_depth"
  input: "scale0_disparity_image"
  input: "scale0_target_image"
  input: "scale1_depth"
  input: "scale1_disparity_image"
  input: "scale1_target_image"
  input: "scale2_depth"
  input: "scale2_disparity_image"
  input: "scale2_target_image"
  input: "scale3_depth"
  input: "scale3_disparity_image"
  input: "scale3_target_image"
  attr {
    key: "N"
    value {
      i: 16
    }
  }
  attr {
    key: "_output_shapes"
    value {
      list {
        shape {
        }
      }
    }
  }
}
versions {
  producer: 134
}
